model.pth (torch, 35512 bytes, 10 tensors)

block_1.0.weight f4 [10, 3, 3, 3]
0	0x3de2aee8	0.11068517
1	0x3d8266da	0.06367274
2	0x3e6899e8	0.2271496
3	0xbd6bd6d9	-0.05757794
4	0x3e89b70a	0.2689746
5	0x3e364560	0.17799902
6	0x3df2c671	0.11854256
7	0x3e78951c	0.2427563
8	0x3e77c60b	0.24196641
9	0xbd8cf122	-0.0688193
10	0xbd5f69f2	-0.054544397
11	0xbda31a5c	-0.07964012
12	0x3e4f4036	0.20239338
13	0x3e73478f	0.23757766
14	0x3d96b659	0.07358999
15	0x3c823525	0.015894482
16	0x3db04e1c	0.08608648
17	0x3e1813e9	0.14851345
18	0xbe400e43	-0.1875544
19	0xbd1f66ab	-0.03891627
20	0x3e56ef27	0.20989667
21	0x3e16e502	0.14735797
22	0x3ea6731c	0.32509696
23	0x3b9dee9f	0.0048197056
24	0x3e041462	0.128984
25	0x3e50e85e	0.20401141
26	0x3e50389e	0.20334098
27	0xbd23415c	-0.039857253
28	0x3e5d5a7e	0.21616551
29	0x3cc2c988	0.023777738
30	0x3d309f2e	0.043120556
31	0x3e1c3b28	0.15256941
32	0x3da53c2e	0.08068119
33	0xbdb802fe	-0.08984946
34	0xbdb0d9a6	-0.08635263
35	0xbe922619	-0.2854469
36	0x3e573a0e	0.2101824
37	0x3e8037b7	0.25042507
38	0xbd54e62e	-0.05197733
39	0x3dbdf336	0.092749044
40	0xbc3df77e	-0.011594651
41	0x3d8c829a	0.06860848
42	0x3ca09ebc	0.01960694
43	0xbe61c547	-0.22047912
44	0xbe03551c	-0.12825435
45	0x3d960dea	0.07326873
46	0xbc011fc2	-0.007881107
47	0xbce28a94	-0.02765397
48	0xbd54d878	-0.051964253
49	0x3dd5b35f	0.10434603
50	0xbe5a22d5	-0.2130235
51	0x3de3962d	0.11112628
52	0xbda7e80a	-0.08198555
53	0xbe269bee	-0.1627042
54	0x3e1b8c23	0.15190177
55	0x3d0a7a4a	0.03380803
56	0xbe3d14b2	-0.18464926
57	0xbe205361	-0.15656807
58	0xbdf9bcd1	-0.12194217
59	0x3d40cb06	0.04706862
60	0x3d42fa8d	0.047602225
61	0xbcf1df2a	-0.029525358
62	0x3cf529ef	0.029927222
63	0x3e108fd9	0.14117374
64	0x3d568fc4	0.0523832
65	0xbd876500	-0.06611061
66	0xbe41e036	-0.18933186
67	0xbe854d29	-0.2603543
68	0xbd14be52	-0.036314316
69	0xbe2e3973	-0.17014103
70	0xbd8d1397	-0.06888502
71	0x3e70b946	0.23508176
72	0x3da98700	0.08277702
73	0xbe41c955	-0.18924458
74	0xbbd7f0a7	-0.0065899673
75	0x3c94e3e8	0.01817508
76	0xbe446d12	-0.19182232
77	0x3cf43171	0.029808732
78	0xbda7a83d	-0.08186386
79	0x3e25e5ba	0.16200915
80	0x3e18cea1	0.14922573
81	0xbda59bed	-0.08086381
82	0xbd1a35b1	-0.03764886
83	0x3dd5668e	0.104199514
84	0xbe9c25d7	-0.3049762
85	0x3e3ee7aa	0.1864306
86	0xbd43fd56	-0.04784902
87	0xbe7e1c33	-0.24815445
88	0x3b22bee7	0.0024833025
89	0x3d853877	0.065049104
90	0xbd9eae97	-0.07748144
91	0xbd8e5077	-0.06948941
92	0xbd9d1de6	-0.07671718
93	0xbe681395	-0.2266372
94	0xbd3eb082	-0.04655505
95	0x3d191539	0.037373755
96	0xbe903325	-0.2816402
97	0x3e7d196c	0.24716729
98	0x3e41d7c4	0.18929964
99	0x3d81df2d	0.063413955
100	0xbe4897b2	-0.19589117
101	0xbdc68342	-0.09693004
102	0xbe3ad14e	-0.18243906
103	0x3c76ef05	0.015071635
104	0x3ddcaf49	0.107756205
105	0xbe068bc6	-0.13139257
106	0x3dd4b485	0.10385994
107	0x3e9fd0ed	0.31214085
108	0xbd81de72	-0.06341256
109	0xbde7dc15	-0.11321274
110	0xbd174051	-0.03692657
111	0x3dc7aee6	0.09750156
112	0x3d9b41e6	0.075809285
113	0xbd64966d	-0.05580752
114	0x3dd1dc1c	0.10247061
115	0x3d10abaf	0.03531998
116	0xbe15d1ac	-0.14630765
117	0xbdf01989	-0.117236204
118	0xbe2d08d3	-0.16897897
119	0xbe4aa671	-0.19790055
120	0x3d2fcd25	0.04292025
121	0xbd9bb4dc	-0.076028556
122	0x3e121675	0.14266379
123	0xbd8602b0	-0.06543481
124	0xbe1321a5	-0.14368303
125	0xbd7ecd41	-0.062207464
126	0x3ddf3ada	0.10899897
127	0xbe2d667a	-0.16933623
128	0xbe10c47b	-0.14137451
129	0xbe440c87	-0.19145404
130	0xbc67134c	-0.014103722
131	0x3de252ca	0.11050947
132	0x3cf9bc33	0.030485248
133	0xbdbf84c2	-0.093514934
134	0xbe4a60bf	-0.19763468
135	0x3e80dbeb	0.25167784
136	0x3ae2f29f	0.0017314738
137	0xbe516000	-0.20446777
138	0x3d309f67	0.043120768
139	0x3d091086	0.033463024
140	0xbda78da4	-0.08181313
141	0xbda0da01	-0.07854081
142	0xbe00924e	-0.12555811
143	0xbddc6925	-0.10762242
144	0x3ea6ade6	0.3255455
145	0x3e1a46c3	0.15066056
146	0xbe81356e	-0.25236076
147	0x3d40e8a9	0.047096882
148	0xbd90e1e5	-0.07074336
149	0xbdffb8ff	-0.12486457
150	0xbdd2ce14	-0.102932125
151	0xbd833173	-0.06405916
152	0x3dd752ea	0.105138615
153	0x3d93f8a2	0.07225157
154	0x3e3a2d70	0.18181396
155	0xbd3224fd	-0.043492306
156	0xbd52ec39	-0.05149481
157	0xbe3833a0	-0.17988443
158	0xbe560ca9	-0.20903267
159	0x3e100a65	0.14066465
160	0x3d89a7bc	0.06721446
161	0x3d21585d	0.03939091
162	0xbe421bbd	-0.18955894
163	0xbe3e3873	-0.18576221
164	0xbdfb3661	-0.12266231
165	0xbdbb0dbd	-0.0913348
166	0x3e39354a	0.18086734
167	0x3dcb3c10	0.099235654
168	0x3dd52ccc	0.10408935
169	0x3dfe36cb	0.12412795
170	0x3d945ed3	0.07244649
171	0x3d9eda36	0.07756464
172	0x3d71e1d1	0.059053246
173	0x3e4428eb	0.19156234
174	0xbe6f1741	-0.23348714
175	0x3da16c18	0.07881945
176	0x3e40b55e	0.18819186
177	0x3c837ed5	0.01605169
178	0xbd04542f	-0.032306846
179	0x3e753180	0.23944664
180	0xbe3c4e48	-0.18389237
181	0x3dae4f1b	0.08511182
182	0x3cc82658	0.024432346
183	0xbe69d16c	-0.22833794
184	0x3cc93887	0.024563087
185	0x3e833a48	0.25630403
186	0xbe35fc70	-0.17772079
187	0x3a75c067	0.00093746785
188	0x3e36d6d1	0.17855383
189	0x3e068916	0.13138232
190	0x3c579100	0.013157129
191	0xbd12655e	-0.035741203
192	0xbded2040	-0.11578417
193	0x3da4a1dc	0.08038685
194	0xbe45882d	-0.19290228
195	0xbd574ade	-0.052561633
196	0x3e05eeee	0.13079426
197	0x3d2ab810	0.041679442
198	0xbd881af7	-0.06645768
199	0xbe02d0d4	-0.12774974
200	0xbd78b9a1	-0.060723905
201	0xbd5fbf46	-0.054625772
202	0x3de56d68	0.11202508
203	0x3b6b2a75	0.003588346
204	0xbe5dbaac	-0.21653241
205	0xbae8cef5	-0.0017761873
206	0x3e43a4af	0.1910579
207	0x3d233720	0.039847493
208	0xbdc95320	-0.09830308
209	0x3c96b55a	0.018397022
210	0xbd88d039	-0.0668034
211	0xbe536e64	-0.2064758
212	0xbcf61c0e	-0.030042674
213	0xbe737e11	-0.2377856
214	0xbe11a633	-0.14223556
215	0x3e83ac15	0.25717226
216	0xbd22dd47	-0.039761808
217	0x3e738e1a	0.23784676
218	0x3d1e9889	0.038719688
219	0x3d330e5c	0.043714866
220	0xbe0f5101	-0.13995744
221	0xbd99300b	-0.074798666
222	0x3df30fcd	0.11868248
223	0xbe459d8b	-0.19298379
224	0x3cc6693e	0.024220105
225	0x3d8cdeaf	0.06878411
226	0x3e3ca5c5	0.18422611
227	0xbcb29398	-0.021798894
228	0x3e155c25	0.14585932
229	0xbe07a936	-0.13248143
230	0x3cfc6421	0.030809464
231	0xbdb0fc71	-0.086418994
232	0xbdba02ed	-0.09082589
233	0xbdfee135	-0.124452986
234	0x3e16f9d0	0.14743733
235	0x3e89d6d8	0.26921725
236	0xbc0c9010	-0.008579269
237	0xbba7bca5	-0.0051189237
238	0xbcb834f2	-0.022486184
239	0xbe39ba5e	-0.181375
240	0xbda80ff9	-0.082061715
241	0x3d9077a0	0.07054067
242	0xbdfcbfcf	-0.12341272
243	0xbdc8ccd8	-0.09804696
244	0x3dd89e1d	0.10577033
245	0x3df118d6	0.11772315
246	0xbdea0ca4	-0.11428192
247	0xbdbfe1ad	-0.09369216
248	0xbdee8700	-0.11646843
249	0x3e0c653b	0.13710491
250	0xbe1ac630	-0.15114665
251	0xbd9d5cc0	-0.07683706
252	0x3d7784f8	0.060429543
253	0xbda8c447	-0.08240562
254	0xbdb252e1	-0.08707214
255	0x3e084feb	0.13311736

block_1.0.bias f4 [10]
0	0xbea63dfa	-0.3246916
1	0x3eb669f1	0.35627702
2	0x3ccaf6b4	0.02477584
3	0x3e5b6c54	0.21428043
4	0xbd6954a7	-0.056965496
5	0x3e6fa6fd	0.23403545
6	0xbdf1de4a	-0.118099764
7	0x3e9f6629	0.3113263
8	0x3e9119d5	0.2834002
9	0x3e920352	0.28518158

block_1.2.weight f4 [10, 10, 3, 3]
0	0x3d5384a1	0.051640157
1	0x3da83b7e	0.08214472
2	0xbdd02b57	-0.101645164
3	0x3d2cab94	0.042155817
4	0xbe1a6581	-0.15077783
5	0xbdc39021	-0.09548975
6	0x3d98be06	0.07458119
7	0xbddee7e7	-0.108840756
8	0xbe0686e2	-0.13137391
9	0x3e02106f	0.12701581
10	0x3d0175f8	0.031606644
11	0x3e9aff9e	0.30273145
12	0x3e328c14	0.17436248
13	0x3dce533d	0.1007447
14	0xbc9f8bc1	-0.01947582
15	0x3e5c09c6	0.21488103
16	0x3dc0d539	0.09415669
17	0xbdc0f697	-0.09422033
18	0x3ad3bd1d	0.0016154383
19	0xbe19cbd5	-0.15019162
20	0xbe62ca85	-0.22147568
21	0xbe37d3d7	-0.17951904
22	0xbd3f4447	-0.046695974
23	0x3d94ec82	0.07271673
24	0x3d66826c	0.056276724
25	0x3e3806e7	0.17971383
26	0x3eb9b92f	0.36274096
27	0x3e1c3cc6	0.15257558
28	0x3e348613	0.1762927
29	0x3d539674	0.051657155
30	0xbd44b9cd	-0.048028756
31	0x39ee6a06	0.0004547389
32	0x3d935d8b	0.07195576
33	0xbd5f1f50	-0.05447322
34	0x3e62d975	0.22153266
35	0x3ee4784b	0.44623026
36	0xbd663ae0	-0.05620849
37	0xbbc40c05	-0.005982878
38	0x3dac6610	0.084179044
39	0xbd80ba67	-0.062855534
40	0x3d571c6f	0.05251735
41	0xbdc38aa6	-0.095479295
42	0x3dcc45b2	0.09974231
43	0xbd749a18	-0.059717268
44	0x3cb095e2	0.021555845
45	0xbc49969e	-0.012303976
46	0xbdcc5095	-0.09976307
47	0x3e9bf24d	0.30458298
48	0x3d84af8f	0.06478798
49	0x3e6bb733	0.23019104
50	0x3e88da51	0.26729062
51	0x3ea4998a	0.3214839
52	0x3eca3e42	0.39500624
53	0x3ec003d2	0.37502915
54	0x3c8ec301	0.01742697
55	0xbbcfc7d1	-0.0063409586
56	0xbe6f1f01	-0.23351671
57	0xbd6d46a3	-0.057928693
58	0xbe49c113	-0.19702558
59	0xbe532d50	-0.20622754
60	0xbe030bd3	-0.1279748
61	0xbd712627	-0.058874276
62	0xbd5d8d53	-0.054089855
63	0x3deb3ac2	0.114858165
64	0x3d85c52f	0.065317504
65	0x3d8bc4a6	0.06824617
66	0xbdaf0943	-0.085466884
67	0x3e4137c7	0.18868934
68	0x3e3bee9f	0.18352745
69	0x3e3c8192	0.18408802
70	0x3eafa049	0.34301975
71	0x3e65c1c1	0.22437192
72	0xbddc6b60	-0.10762668
73	0x3ddb50bd	0.10708759
74	0x3ead2452	0.33816773
75	0x3dbaef42	0.09127666
76	0x3e46e8c5	0.19424732
77	0x3e1488b3	0.14505272
78	0x3e9e205e	0.3088407
79	0x3da1d507	0.0790196
80	0x3daa35dc	0.08311054
81	0x3d7bbda4	0.061460152
82	0x3d1caa63	0.03824843
83	0x3e9d7d47	0.30759642
84	0x3e45387a	0.19259825
85	0x3df080d1	0.1174332
86	0x3e181c61	0.14854576
87	0x3c9aa440	0.018877149
88	0x3e09455c	0.13405365
89	0xbb66d48b	-0.00352219
90	0xbd00a4c1	-0.03140712
91	0xbd13a58a	-0.036046542
92	0xbcc52939	-0.024067508
93	0xbcb4ee48	-0.022086278
94	0xbe262ce1	-0.16228057
95	0xbdf62a92	-0.120198384
96	0x3d518024	0.051147595
97	0xbcbd799f	-0.023129283
98	0xbe841d0e	-0.25803417
99	0xbd42512a	-0.047440685
100	0x3d946a2b	0.072468124
101	0x3dd82fbd	0.1055598
102	0xbd52901f	-0.051406976
103	0xbcdff333	-0.027337646
104	0xbde46f8a	-0.11154087
105	0xbd0c9652	-0.034323044
106	0xbd82262d	-0.06354938
107	0x3db7aff2	0.08969106
108	0xbe53827c	-0.20655245
109	0xbe397293	-0.18110113
110	0xbe1750ab	-0.14776866
111	0xbdac44d8	-0.084115684
112	0xbd3edd1c	-0.046597585
113	0xbe076f0f	-0.13225959
114	0xbe2f25d4	-0.17104274
115	0xbe33a835	-0.17544635
116	0x3b35c44a	0.0027735406
117	0xbda18d62	-0.07888295
118	0xbe288647	-0.16457473
119	0xbdd94787	-0.10609346
120	0xbda20020	-0.0791018
121	0xbdb97260	-0.090550184
122	0xbcabcfab	-0.020973047
123	0xbda15712	-0.078779355
124	0xbda5af86	-0.08090119
125	0xbd8a2e84	-0.067471534
126	0xbdb501ef	-0.088382594
127	0x3d280746	0.04102256
128	0xbd73c92f	-0.059518036
129	0xbbd67021	-0.0065441285
130	0xbd5bec02	-0.05369187
131	0xbb12129a	-0.002228892
132	0xbc84c327	-0.016206337
133	0x3c1c9b30	0.009558484
134	0xbd6d6fbc	-0.057967886
135	0xbe32931a	-0.17438927
136	0xbe081979	-0.13290967
137	0xbe1c2e4a	-0.15252033
138	0x3c8ab4b6	0.016931873
139	0xbe820f3d	-0.2540225
140	0x3d83b30b	0.06430634
141	0x3b43917e	0.0029841359
142	0x3d163fde	0.036682002
143	0x3da94ca7	0.082665734
144	0xbccdd5b2	-0.025126312
145	0xbe2331b1	-0.15936925
146	0x3c8b80fe	0.017029282
147	0xbd01b475	-0.031666238
148	0xbe0a585d	-0.1351027
149	0xbd99d0a0	-0.07510495
150	0x3d34a422	0.04410184
151	0xbdbe273d	-0.09284828
152	0xbe814ab1	-0.25252298
153	0xbe3419eb	-0.17588012
154	0xbd56c778	-0.052436322
155	0xbcc98aaf	-0.024602262
156	0xbd58d8a4	-0.05294098
157	0xbe056b23	-0.1302915
158	0x3d82aab2	0.06380214
159	0xbd9f12dd	-0.0776727
160	0xbc0e8517	-0.008698723
161	0x3bfebfbc	0.0077743214
162	0xbe1bc464	-0.15211636
163	0x3d294fc7	0.041335847
164	0x3e06172a	0.13094774
165	0x3d24cd3b	0.040234786
166	0x3d8da1b3	0.06915607
167	0x3def1b9c	0.11675188
168	0x3b6cfbaf	0.0036160757
169	0x3e2522b3	0.16126518
170	0xbb411f31	-0.0029468054
171	0xbd8d9a33	-0.06914177
172	0x3c8224e0	0.015886724
173	0x3d09a435	0.033603866
174	0xbda5bd78	-0.08092779
175	0xbc3db5d0	-0.011578992
176	0xbcfed7d7	-0.03110878
177	0x3cc91ddc	0.02455037
178	0x3deb5799	0.11491317
179	0x3d6cc555	0.057805378
180	0x3e03f061	0.12884666
181	0xbcae1ae0	-0.02125305
182	0xbd0d957d	-0.03456639
183	0x3dc23f07	0.09484678
184	0xbe17e4a7	-0.14833318
185	0xbe3ceac4	-0.18448931
186	0x3cecd0a5	0.028908083
187	0x3baa8bbc	0.005204646
188	0xbd91e7e6	-0.07124309
189	0x3e15c79d	0.14626928
190	0x3d149bdb	0.036281448
191	0x3dd10c7f	0.102074616
192	0x3e113b6b	0.14182822
193	0x3da7b7f3	0.081893824
194	0x3e1737e6	0.14767417
195	0x3df01297	0.11722296
196	0x3d630d79	0.05543277
197	0x3d3b7357	0.045764294
198	0xbccb6b8b	-0.024831554
199	0xbd1b641a	-0.03793726
200	0xbe72a4af	-0.23695634
201	0xbe0e4264	-0.13892514
202	0xbe1013f5	-0.14070113
203	0x3c13d761	0.009023518
204	0x3d031dc5	0.032010812
205	0x3e0b8def	0.13628362
206	0x3e477e08	0.19481671
207	0x3d14692a	0.036233105
208	0x3e1a47c5	0.1506644
209	0x3d215aae	0.03939312
210	0x3d09579f	0.033530828
211	0xbbb33e13	-0.0054700463
212	0x3d3a6f2c	0.045516178
213	0xbd7df410	-0.062000334
214	0x3e220d86	0.15825471
215	0x3eb5669e	0.35429853
216	0x3c33a875	0.010965456
217	0x3c8a83bf	0.016908525
218	0xbdabe197	-0.08392637
219	0xbdccb8eb	-0.09996208
220	0xbd975163	-0.0738857
221	0xbcb608bd	-0.022220964
222	0xbd82edc2	-0.06393005
223	0x3dc67e7d	0.096920945
224	0x3d897d01	0.06713296
225	0x3dc81d18	0.09771174
226	0xbb37e6d8	-0.0028061178
227	0x3e45abc4	0.19303805
228	0x3e10bb00	0.14133835
229	0x3e4775ed	0.19478579
230	0x3ed0c747	0.40777037
231	0x3eb281a2	0.34864527
232	0x3ed0b719	0.40764692
233	0x3dd52b94	0.104087025
234	0x3d0819fa	0.0332279
235	0xbe26379a	-0.16232148
236	0xbcac4269	-0.02102776
237	0xbdde5677	-0.108563356
238	0xbe6c5aba	-0.23081484
239	0xbc15e233	-0.009148168
240	0xbd8d8ab0	-0.06911218
241	0xbe3cde9a	-0.18444291
242	0xbe049b8d	-0.12949963
243	0x3d8547bb	0.06507822
244	0xbd8f0e0e	-0.069851026
245	0x3e10d501	0.14143755
246	0x3d783b92	0.060603686
247	0x3deb9133	0.11502304
248	0x3e925f33	0.28588256
249	0x3e69f0bc	0.22845739
250	0x3e617a0c	0.22019213
251	0x3e8d598f	0.2760739
252	0xbdaef2f8	-0.08542436
253	0xbd2cd0cf	-0.042191323
254	0x3e18e94b	0.14932744
255	0xbce2e1c4	-0.027695544

block_1.2.bias f4 [10]
0	0x3dac2bc3	0.084067844
1	0xbdc46284	-0.09589103
2	0x3da20e53	0.079128884
3	0x3e2d0032	0.16894606
4	0x3d8c3cec	0.068475574
5	0xba71ddaf	-0.0009226454
6	0x3e4b017a	0.19824782
7	0xbd97012e	-0.07373272
8	0x3de94f1c	0.11392042
9	0x3e1f9a86	0.1558629

block_2.0.weight f4 [10, 10, 3, 3]
0	0xbd84922d	-0.06473193
1	0xbe97cc2a	-0.29647952
2	0xbccc7ccb	-0.02496185
3	0xbd98d1b2	-0.07461871
4	0x3d414c8c	0.04719214
5	0x3e00de4f	0.12584804
6	0x3ea83b25	0.32857624
7	0x3e7ff93b	0.24997418
8	0x3e980069	0.29687813
9	0x3d764c3a	0.06013129
10	0x3d64c0d4	0.055847958
11	0xbd003678	-0.031301945
12	0x3da104e7	0.07862263
13	0xbd3add9e	-0.045621507
14	0x3cf66cfc	0.030081265
15	0x3e3f7203	0.18695836
16	0x3c36bc66	0.011153316
17	0x3d53b909	0.051690135
18	0xbcdfe2ea	-0.02732988
19	0xbdbd8768	-0.09254342
20	0xbe12db3d	-0.14341445
21	0xbc97f526	-0.018549513
22	0x3d6403f8	0.055667847
23	0x3d24ee68	0.040266424
24	0x3eae039f	0.33987138
25	0x3e82e9a3	0.25568876
26	0x3e8d2cf2	0.27573353
27	0x3da191bb	0.07889124
28	0xbdf40712	-0.11915411
29	0xbe81967a	-0.25310117
30	0xbca8d78d	-0.020610595
31	0xbc8ff69f	-0.017573653
32	0x3e565ec9	0.20934595
33	0x3dbe82fb	0.09302326
34	0x3e8c2d00	0.27378082
35	0x3e9a97f7	0.30194065
36	0x3d2705ad	0.040776897
37	0xbdad377b	-0.08457848
38	0xbe518a78	-0.20462978
39	0x3bbe1a03	0.0058014407
40	0xbd72015b	-0.059083324
41	0xbbbc7cc9	-0.0057521802
42	0xbc340316	-0.010987064
43	0xbd4b2f5c	-0.049605712
44	0x3e2094de	0.15681788
45	0x3d5e9e32	0.054350086
46	0x3a0cfe9e	0.0005378517
47	0x3daa9c4b	0.08330592
48	0xbdbc0e8d	-0.09182463
49	0x3dd5e593	0.104441784
50	0x3e00910e	0.12555334
51	0xbd326007	-0.04354861
52	0xbd24a3df	-0.040195342
53	0xbe06d0ed	-0.13165636
54	0xbda68ecf	-0.08132707
55	0xbe606c8f	-0.21916412
56	0x3c87671f	0.016528664
57	0xbd8d6a86	-0.06905083
58	0x3d9cc995	0.07655636
59	0x3e3eef19	0.18645896
60	0x3ed31058	0.41223407
61	0x3e930e72	0.28721958
62	0x3e9d68af	0.3074393
63	0x3ddf2938	0.10896534
64	0xbcb75659	-0.022380041
65	0xbc374ef3	-0.011188257
66	0xbc60eabc	-0.01372784
67	0xbe0182a2	-0.12647489
68	0xbd7a26ab	-0.061072033
69	0xbd0d8975	-0.034554917
70	0x3e39710b	0.18109529
71	0x3e8a9b96	0.27071828
72	0x3d6ff0f2	0.058579393
73	0xbe4b9166	-0.19879684
74	0x3c21a327	0.009865559
75	0x3d5f0eab	0.054457348
76	0xbd1284f5	-0.03577133
77	0x3def2319	0.11676616
78	0x3e517b6c	0.20457238
79	0x3eb6bb5d	0.35689822
80	0x3e81904b	0.253054
81	0x3d877644	0.06614354
82	0xbd84273f	-0.06452798
83	0x3d5a820c	0.05334668
84	0xbd53d2b3	-0.05171461
85	0x3e0b8dc2	0.13628295
86	0x3e5a12c4	0.21296221
87	0x3ec50015	0.38476625
88	0x3eaf2ef0	0.34215498
89	0x3ec5e11f	0.38648316
90	0x3d35b2d0	0.044359982
91	0x3d947e69	0.07250673
92	0xbb7beddf	-0.0038441343
93	0xbc6c20d5	-0.014412125
94	0xbd8a135d	-0.067419745
95	0xbd8d2f80	-0.068938255
96	0x3db50e03	0.08840563
97	0xbbff190a	-0.0077849673
98	0x3d80ef18	0.062956035
99	0xbd5656b7	-0.05232879
100	0x3cf0b10b	0.029381296
101	0xbc428a88	-0.011873849
102	0x3d8afc9c	0.06786463
103	0xbcfedc17	-0.031110806
104	0x3bd90cab	0.0066238246
105	0xbd54fe64	-0.05200042
106	0xbda2d1fa	-0.07950206
107	0x3ab75ee3	0.001399007
108	0x3d516dc7	0.051130082
109	0x3d74dc3f	0.059780356
110	0x3daa7ea0	0.08324933
111	0x3c9d510e	0.019203689
112	0xbce172fa	-0.027520645
113	0xbdb1998d	-0.086718656
114	0x3d47af68	0.048751265
115	0xbdd63581	-0.10459424
116	0x3dae703a	0.08517499
117	0xbccf602a	-0.02531441
118	0xbd5c2b3a	-0.05375216
119	0x3d58a207	0.052888896
120	0xbd7a7691	-0.06114823
121	0x3d5b115b	0.05348335
122	0xbcce5711	-0.025188
123	0xbda14e33	-0.078762434
124	0x3b345f6e	0.00275227
125	0xbd04ac5d	-0.03239094
126	0xbd23734f	-0.03990489
127	0xbd8b733a	-0.06809087
128	0xbd04c2c4	-0.032412305
129	0x3ccceca2	0.025015179
130	0xbd0cce91	-0.034376685
131	0xbd58bd7d	-0.052915085
132	0xbdc611b0	-0.096713424
133	0x3d687cd5	0.056759674
134	0x3cc8f52e	0.024530973
135	0xbda8d372	-0.08243455
136	0xbdda7d68	-0.106684506
137	0xbd2e12b9	-0.042498324
138	0xbd0f95ec	-0.035055086
139	0x3c45dc21	0.012076409
140	0xbd187cd2	-0.037228413
141	0xbd1abd25	-0.03777804
142	0xbdae1966	-0.08500938
143	0x3c4228f2	0.011850582
144	0x3dab2f6e	0.08358656
145	0xbd90cc14	-0.07070175
146	0xbda99685	-0.082806624
147	0xbdaaab63	-0.08333471
148	0x3c099b2b	0.008398811
149	0xba32a6fe	-0.0006815045
150	0x3d59ea49	0.053201947
151	0xba9ea3a1	-0.0012103209
152	0x3d577429	0.052601013
153	0xbd8eba21	-0.06969095
154	0x3d299923	0.04140581
155	0x3daebf85	0.08532623
156	0xbdb3f078	-0.087861
157	0xbbd82f53	-0.0065974384
158	0x3c3305df	0.010926693
159	0xbd705238	-0.05867216
160	0xbdb07e77	-0.08617871
161	0x3c440fd3	0.011966663
162	0x3cf47eb9	0.029845582
163	0xbda24af7	-0.07924455
164	0x3d0efd94	0.0349098
165	0xbdc77707	-0.097394995
166	0x3d780032	0.06054706
167	0xbd3f8b22	-0.046763547
168	0xbdc86f1c	-0.097868174
169	0x3d756744	0.059912935
170	0xbc128656	-0.008943161
171	0xbbf5090e	-0.007477886
172	0x3c88c1fa	0.016694058
173	0xbd9797cb	-0.07401999
174	0xbdb4ba14	-0.08824554
175	0xbd4a7885	-0.049431343
176	0xbd9d943c	-0.07694289
177	0xbc6d0bc7	-0.01446814
178	0xbdb652bb	-0.08902498
179	0xbdb02362	-0.08600499
180	0xbe1465e8	-0.14491999
181	0x3d7b5c80	0.06136751
182	0x3e22debf	0.15905283
183	0x3ddb3e38	0.10705227
184	0x3e089bb0	0.1334064
185	0xbc785a0d	-0.0151581885
186	0x3db1ff4f	0.086912744
187	0xbd817bba	-0.06322427
188	0xbcf1751e	-0.029474791
189	0x3d8a4b8d	0.067526914
190	0xbd541f0d	-0.051787425
191	0x3db106c0	0.086438656
192	0xbca8ad62	-0.020590488
193	0x3df2a6ef	0.11848246
194	0x3d3cbb8e	0.046077304
195	0x3dbe26ec	0.092847675
196	0xbda4dab1	-0.080495246
197	0x3c8c8588	0.017153516
198	0x3cbc6b7a	0.023000468
199	0xbd1fd81d	-0.03902446
200	0xbcb6549b	-0.02225714
201	0xbd762d37	-0.060101714
202	0x3e23532b	0.15949695
203	0x3e10d9f4	0.14145643
204	0xbc04b32d	-0.008099359
205	0x3da9d036	0.08291666
206	0xbd2e1312	-0.042498656
207	0xbe614248	-0.2199794
208	0xbdef9f5f	-0.117003195
209	0xbdadec93	-0.084923886
210	0xbda56c19	-0.080772586
211	0x3e61a8cf	0.22037052
212	0x3e8d17a0	0.27557087
213	0x3d4e06db	0.050299507
214	0x3e64e502	0.22352985
215	0x3e28bfb6	0.16479382
216	0xbcd6b7aa	-0.026210625
217	0xbe1153ba	-0.14192095
218	0xbdf01218	-0.11722201
219	0xbdd38acb	-0.10329207
220	0xbd3b795a	-0.045770027
221	0x3e010684	0.12600142
222	0x3da1ce34	0.07900658
223	0x3e44382a	0.1916205
224	0x3e43c7d1	0.19119193
225	0xbd930fa7	-0.0718072
226	0xbc777b40	-0.015105069
227	0x3b9007bd	0.0043954537
228	0x3b959703	0.004565121
229	0xbde1f0fb	-0.110322915
230	0xbd9024cb	-0.07038268
231	0xbd91cac9	-0.07118756
232	0xbde435b8	-0.111430585
233	0x3c9b2ac9	0.0189413
234	0xbd843468	-0.06455308
235	0xbdd3ac50	-0.103356004
236	0x3ddf30fa	0.108980134
237	0x3df6b270	0.12045753
238	0x3d975766	0.07389717
239	0xbd8d7995	-0.069079556
240	0x3db17c11	0.08666242
241	0x3aeb1209	0.0017934452
242	0xbe3ffaf7	-0.18748079
243	0x3d83f95f	0.06444048
244	0xbccadcd7	-0.024763508
245	0x3c66ae5c	0.014079656
246	0xbd650a69	-0.05591813
247	0x3dda5230	0.10660207
248	0x3e63b2b7	0.22236143
249	0x3d9a6fdf	0.07540869
250	0x3e03522a	0.12824312
251	0x3e4ab252	0.19794586
252	0xbde64409	-0.112434454
253	0x3d131df7	0.03591725
254	0x3c286054	0.010276873
255	0xbd94a1a3	-0.07257392

block_2.0.bias f4 [10]
0	0xbb02fef4	-0.001998839
1	0xbdef69a3	-0.116900705
2	0xbd9899f6	-0.07451241
3	0x3c821745	0.015880236
4	0xbd9a4c27	-0.07534056
5	0x3d8a1439	0.067421384
6	0x3dc3c87c	0.09559724
7	0x3d57024f	0.052492436
8	0xbe2a49aa	-0.16629663
9	0x3d4a30b0	0.04936284

block_2.2.weight f4 [10, 10, 3, 3]
0	0xbdc324d9	-0.095285125
1	0x3e0f2f28	0.13982832
2	0xbce63259	-0.02810018
3	0xbd142af4	-0.036173776
4	0xbd317616	-0.043325506
5	0xbe1c7c4d	-0.15281792
6	0xbba8e5bd	-0.00515434
7	0xbe5f3e8b	-0.21801202
8	0xbe0d885e	-0.13821551
9	0xbcd33894	-0.025783814
10	0xbdac3d38	-0.08410114
11	0xbd045ac5	-0.032313127
12	0xbd1a89e3	-0.037729155
13	0xbda6f7b1	-0.08152712
14	0xbdd616eb	-0.1045359
15	0x3ce8bf0c	0.02841141
16	0xbd8f66db	-0.0700204
17	0x3b15b8ef	0.0022845825
18	0xbc3dcf7e	-0.0115851145
19	0x3b0f3edf	0.0021857542
20	0x3e4a3daf	0.19750093
21	0xbd40ad10	-0.047040045
22	0x3d54be69	0.0519394
23	0x3de25cf0	0.11052883
24	0x3e1f3ada	0.15549794
25	0x3d9e2d0a	0.07723434
26	0xbd379833	-0.044822883
27	0xbc4a684c	-0.012353968
28	0x3e0ad88a	0.13559166
29	0xbb85024a	-0.004059111
30	0x3d0830fe	0.033249848
31	0xbdf4938d	-0.119422056
32	0xbe8ee5a1	-0.27909568
33	0x3ca6b840	0.02035153
34	0xbdead69e	-0.11466716
35	0xbe00d8a1	-0.12582637
36	0xbd328ced	-0.04359143
37	0x3c01b902	0.007917644
38	0xbe34d25f	-0.17658375
39	0xbd89f96c	-0.067370266
40	0xbd9b5662	-0.075848356
41	0xbe3310f3	-0.17486934
42	0xbd9b26e1	-0.07575775
43	0xbe55ef5c	-0.2089209
44	0xbdbaeb37	-0.09126895
45	0xbde17d4e	-0.11010228
46	0x3dfa2abf	0.122151844
47	0x3dcb58b9	0.09929032
48	0xbe36c93d	-0.17850204
49	0xbd1636d9	-0.0366734
50	0x3cbde61d	0.023181016
51	0xbdecf773	-0.11570635
52	0x3c88f1b9	0.016716825
53	0x3b1f9764	0.002435171
54	0xbe6b6024	-0.22985893
55	0xbdf99483	-0.121865295
56	0xbce95083	-0.028480774
57	0xbe89aaf2	-0.26888233
58	0xbdcaabd8	-0.09896058
59	0x3e1371c3	0.14398865
60	0xbe23a3d7	-0.15980469
61	0x3e03a549	0.1285602
62	0x3dc6669c	0.0968754
63	0xbe019108	-0.12652981
64	0xbd82b82d	-0.06382785
65	0x3e0429ca	0.12906566
66	0x3da2f015	0.07955948
67	0x3d3a41f0	0.04547304
68	0x3e2015c5	0.15633304
69	0x3deb8b67	0.11501198
70	0x3d80bf46	0.062864825
71	0x3dd797ad	0.10526977
72	0x3d85c20f	0.06531154
73	0x3e171771	0.14755036
74	0xbc80c8a3	-0.015720671
75	0xbd8ee3fc	-0.06977078
76	0x3d9e9a5d	0.07744286
77	0xbd8b7f23	-0.06811359
78	0x3c3db4a9	0.011578717
79	0x3a191b28	0.00058405334
80	0xbd3c2ccb	-0.045941155
81	0x3d069a92	0.032862253
82	0xbd03630e	-0.032076888
83	0x3e03d744	0.12875086
84	0x3dd61ff3	0.104553126
85	0xbcad3daa	-0.021147568
86	0x3e1204df	0.1425967
87	0x3e1cb37a	0.1530284
88	0xbd32588d	-0.04354148
89	0x3d2e2e15	0.042524416
90	0xbe4c4406	-0.19947824
91	0xbc9631fd	-0.018334383
92	0x3dfde9d3	0.12398114
93	0xbdd34fba	-0.10317941
94	0xbdb1489a	-0.08656426
95	0x3d9ac28c	0.07556638
96	0x3e73573f	0.2376375
97	0x3c16ed04	0.009211782
98	0xbd6470da	-0.055771686
99	0xbc284608	-0.010270603
100	0xbd53ad8f	-0.05167919
101	0xbbce8bc8	-0.0063032843
102	0xbc9fed23	-0.019522255
103	0xbd905f89	-0.07049472
104	0xbc84b302	-0.016198639
105	0xbd17519e	-0.03694307
106	0xbcfcb5a9	-0.030848341
107	0x3c9893b8	0.018625125
108	0xbd79b5a7	-0.060964253
109	0xbe503a97	-0.2033485
110	0x3e4fa331	0.20277096
111	0xbe17b762	-0.14816049
112	0xbd9ce933	-0.07661667
113	0x3dedaab9	0.116048284
114	0x3d9c31af	0.07626664
115	0xbd76889b	-0.06018887
116	0xbc715f25	-0.014732157
117	0xbe1cb138	-0.15301979
118	0xbca4da76	-0.020123702
119	0x3da31471	0.07962883
120	0xbe061d2e	-0.13097069
121	0xbbe17e71	-0.006881528
122	0x3e1f707b	0.15570252
123	0x3e14a8ee	0.14517567
124	0xbd1adf43	-0.037810575
125	0xbc56d00b	-0.013111125
126	0xbd703fae	-0.05865448
127	0x3e13a45a	0.14418164
128	0x3e6f74a0	0.23384333
129	0xbdc4f16c	-0.0961636
130	0x3d4a01f1	0.049318258
131	0x3d4146ac	0.04718654
132	0x3d279600	0.040914536
133	0x3da5c5ac	0.080943435
134	0x3cd0286d	0.025409902
135	0xbd8a4d7f	-0.067530625
136	0xbe1163e5	-0.14198263
137	0xbe02c0ea	-0.12768903
138	0xbcdcf4dd	-0.026972229
139	0xbcc70ad0	-0.024297148
140	0x3d7ce234	0.06173916
141	0xbc7365e4	-0.014855836
142	0xbde1791b	-0.11009427
143	0x3d8c6b25	0.06856374
144	0x3d5b82ca	0.053591527
145	0xbe25922a	-0.16169038
146	0xbec9634c	-0.3933357
147	0xbdaa62f6	-0.083196566
148	0xbd272cc6	-0.040814184
149	0xbce612b8	-0.028085098
150	0x3d7f023e	0.062257998
151	0xbc5e64bc	-0.013573822
152	0x3dc9bc8a	0.09850414
153	0xbe497b56	-0.19675955
154	0xbe2525d9	-0.16127719
155	0x3dc77342	0.097387806
156	0xbe3e6e6d	-0.18596812
157	0xbd336245	-0.04379489
158	0xbc7ddbd3	-0.015494305
159	0xbe2464eb	-0.16054122
160	0x3b53002c	0.0032196147
161	0x3dab3bf3	0.08361044
162	0x3d0a1a68	0.03371659
163	0xbd92044b	-0.07129725
164	0x3e03547c	0.12825197
165	0x3d3b0417	0.045658197
166	0x3c31cedc	0.010852542
167	0x3c0c830c	0.008576166
168	0x3e03224a	0.12806049
169	0x3dedb383	0.11606505
170	0xba2f3978	-0.0006684284
171	0xbe1063c6	-0.1410056
172	0xbd74b26a	-0.05974046
173	0x3e77295a	0.24136868
174	0xbdb9ab9b	-0.09065934
175	0xbda74142	-0.08166744
176	0x3e08a53f	0.13344286
177	0x3df54bb3	0.11977329
178	0x3d02f857	0.031975117
179	0x3da561d5	0.080753006
180	0xbde1e8a3	-0.110307
181	0xbcfea517	-0.03108458
182	0x3d83e073	0.06439295
183	0xbd0c5b9b	-0.03426705
184	0x3c67bb1c	0.014143731
185	0xbd7cd9ac	-0.061731026
186	0x3e1a9a0d	0.15097828
187	0x3d35c41a	0.04437647
188	0x382a8ab2	4.066033e-05
189	0x3cec31aa	0.028832275
190	0x3db2b014	0.087249905
191	0x3a53b20e	0.00080755434
192	0x3d3e0ecd	0.046400834
193	0xbdd9e307	-0.10639005
194	0xbd2e4ca3	-0.042553555
195	0x3d259d6d	0.040433336
196	0x3c92dc4d	0.017927313
197	0x3bbd574a	0.005778228
198	0xba6af727	-0.000896322
199	0xbd9a3927	-0.07530432
200	0xbe50ccee	-0.20390674
201	0xbe367e8b	-0.1782171
202	0x3d7645db	0.060125213
203	0xbce8b256	-0.02840535
204	0xbde1665b	-0.11005851
205	0x3e101171	0.14069153
206	0x3d373556	0.0447286
207	0xbde9f224	-0.11423138
208	0x3c748243	0.014923635
209	0x3d3d0b8c	0.04615359
210	0xbd1de963	-0.038552653
211	0x3dacf347	0.08444839
212	0xbd2022be	-0.039095633
213	0x3e4001bc	0.18750662
214	0x3de0a938	0.10969776
215	0xbe0a3b92	-0.13499287
216	0xbd6b89c8	-0.057504445
217	0xbd54f7b4	-0.05199404
218	0xbd07c677	-0.033148255
219	0x3b62610f	0.0034542715
220	0x3dcda401	0.10041047
221	0x3d43560e	0.04768949
222	0x3e699a8c	0.22812861
223	0x3d267955	0.040643055
224	0xbe1b1474	-0.15144521
225	0x3dd3f1c8	0.103488505
226	0x3d3d8c18	0.046276182
227	0xbd140932	-0.03614158
228	0xbdc5ee12	-0.09664549
229	0x3e0df503	0.13862996
230	0xbbee3cd4	-0.007270435
231	0x3ce1b8d0	0.027553946
232	0x3d3d83a8	0.046268135
233	0x3e042920	0.12906313
234	0x3d8a05ef	0.06739413
235	0x3cf4305c	0.029808216
236	0x3b6a4ed6	0.0035752556
237	0xbddf5876	-0.109055445
238	0xbe32dd9a	-0.17467347
239	0xbda60616	-0.081066296
240	0xbe83577e	-0.2565269
241	0x3d254e1b	0.04035769
242	0xbcf1214c	-0.029434822
243	0xbbaa14ed	-0.005190483
244	0xbe2c4b61	-0.1682563
245	0xbe410428	-0.18849242
246	0xbe15519c	-0.14581913
247	0xbe2d9144	-0.16949946
248	0x3d8d2877	0.06892484
249	0xbd87bbe7	-0.066276364
250	0x3e0e119d	0.13873906
251	0x3da3fe01	0.08007432
252	0xbcab017f	-0.020874737
253	0x3d6dcb9b	0.0580555
254	0xbc21e83d	-0.00988203
255	0x3d4d18de	0.050072543

block_2.2.bias f4 [10]
0	0xbe2346a2	-0.15944913
1	0x3c0e8c35	0.00870042
2	0xbddf0210	-0.10889065
3	0x3bbfff3f	0.005859285
4	0xbd769676	-0.060202084
5	0xbdbe7bac	-0.09300932
6	0xbdf75562	-0.12076832
7	0xbe41c960	-0.18924475
8	0xbd723fcd	-0.059142876
9	0xbdceb06c	-0.100922436

classifier.1.weight f4 [10, 490]
0	0xbd090270	-0.03344959
1	0xbe59582e	-0.21225044
2	0x3d24ccdb	0.040234428
3	0x3da77746	0.081770465
4	0xbdccb7c5	-0.09995989
5	0xbd37ca9f	-0.04487097
6	0x3d56b136	0.052415095
7	0xbd6ce1f3	-0.05783267
8	0x3cabb2e5	0.020959327
9	0x3db19009	0.08670051
10	0xbcbed575	-0.023295144
11	0x3c897584	0.016779669
12	0x3d0e2251	0.034700695
13	0xbcc68a04	-0.024235733
14	0x3da0cd64	0.07851675
15	0x3d8e72f3	0.069555186
16	0x3d8752d2	0.066075936
17	0xbe4a15bd	-0.19734855
18	0x3ac5d346	0.0015092872
19	0xbc86464a	-0.016390938
20	0xbcd235e5	-0.025660465
21	0x3e07b3df	0.13252209
22	0x3c45793c	0.01205283
23	0xbe39565f	-0.18099354
24	0xbe864aac	-0.26228845
25	0xbd790347	-0.06079414
26	0x3d87e48d	0.066353895
27	0x3c3436d3	0.010999399
28	0x3de21b84	0.110404044
29	0xbd05dc5f	-0.032680865
30	0xbc7bc6e7	-0.015367246
31	0xbe0d318d	-0.13788433
32	0x3cca203d	0.024673576
33	0x3d8dee16	0.06930177
34	0xbdb197d2	-0.086715356
35	0x3b81b338	0.003958132
36	0xbd397e66	-0.04528656
37	0x3d459aff	0.04824352
38	0xbd6c3932	-0.057671733
39	0x3ba8be71	0.0051496555
40	0x3d116c5a	0.035503723
41	0xbd9e301a	-0.077240184
42	0xbcfe085d	-0.031009847
43	0x3d31c84a	0.0434039
44	0x3c4ba05d	0.01242837
45	0xbce070e6	-0.027397584
46	0x3c3d9051	0.011570052
47	0x3b08c9b9	0.002087219
48	0x3d391803	0.045188915
49	0x3d02158d	0.031758834
50	0x3d88f65e	0.06687616
51	0x3cecbf01	0.028899672
52	0x3d496f62	0.04917849
53	0xbe3a5861	-0.18197776
54	0x3c20c2d9	0.00981208
55	0x3d052ef6	0.03251549
56	0x3d3d0a8c	0.046152636
57	0x3daef44d	0.085426904
58	0x3cd2eeef	0.025748698
59	0xbdac2a4c	-0.08406505
60	0xbdafd8d0	-0.085862756
61	0x3d316ae7	0.04331484
62	0x3c1f0aed	0.009707195
63	0xbce2c33c	-0.027680986
64	0x3da0a197	0.07843321
65	0xbe4a897f	-0.19779013
66	0x3d9b98eb	0.07597526
67	0x3cafc66f	0.021456925
68	0xbdd1b7ed	-0.10240159
69	0xbd6c1d0e	-0.057644896
70	0xbcd50523	-0.026003426
71	0xbcdc3f85	-0.026885757
72	0xbe8b8fb3	-0.2725807
73	0x3e1657b3	0.14681892
74	0x3e2e94ba	0.17048922
75	0xbd2f0307	-0.042727496
76	0xbcd9fe52	-0.026610527
77	0xbda79d92	-0.08184351
78	0xbd85997e	-0.06523417
79	0xbdd48fec	-0.103790134
80	0x3d50f810	0.05101782
81	0x3ddccf52	0.10781731
82	0xbcab12e7	-0.020883037
83	0x3c6f95c5	0.01462311
84	0x3b99179e	0.004672005
85	0xbd46db4a	-0.048548974
86	0xbe1a4d2d	-0.15068503
87	0x3d0a7504	0.033803
88	0xbc7cdba0	-0.015433222
89	0xbd7108d0	-0.058846295
90	0x3d2bdca5	0.04195847
91	0x3c59147b	0.013249512
92	0xbcbb4c73	-0.022863602
93	0x3d644f3a	0.05573962
94	0x3d788ddd	0.060682166
95	0xbe081a59	-0.13291301
96	0x3d947abb	0.072499715
97	0x3de5baba	0.11217256
98	0xbdccd123	-0.10000827
99	0x3cbad8a0	0.022808373
100	0x3da45e47	0.080257945
101	0x3d7084fc	0.058720574
102	0xbba1605a	-0.004924816
103	0x3cc6314d	0.02419343
104	0x3d33c16d	0.043885637
105	0x3d44d14e	0.04805117
106	0x3d259def	0.04043382
107	0x3d1e81fc	0.03869818
108	0xbe1d9222	-0.15387776
109	0x3d8e410e	0.06946002
110	0x3d9a1148	0.075228274
111	0x3ddbfaa2	0.10741164
112	0x3f301769	0.6878572
113	0x3e0b5160	0.13605261
114	0xbe0b46d1	-0.13601233
115	0xbe98886e	-0.29791588
116	0xbd86526c	-0.065586895
117	0xbda31555	-0.07963053
118	0x3d0cc96a	0.03437177
119	0xba53fa5d	-0.0008086318
120	0xbd391b5e	-0.045192115
121	0xbead4315	-0.33840242
122	0xbe2e185e	-0.17001483
123	0x3c4666e4	0.012109492
124	0x3bec1a3d	0.0072052763
125	0x3e08d436	0.13362202
126	0xbe45b296	-0.19306406
127	0xbe3fdbcd	-0.18736191
128	0xbf111654	-0.56674695
129	0xbd81ef0d	-0.063444234
130	0x3d491080	0.049088
131	0x3d2af948	0.04174164
132	0x3e0c39fd	0.13693996
133	0xbe2a815d	-0.1665091
134	0xbdfccf37	-0.123442106
135	0x3d70da79	0.0588021
136	0x3d2591cb	0.040422242
137	0xbcedd393	-0.02903155
138	0x3e6caf53	0.23113756
139	0x3c4d1e5b	0.012519444
140	0x3db11513	0.08646598
141	0x3e197777	0.14986978
142	0x3e6792de	0.22614619
143	0xbe2799f0	-0.16367316
144	0x3e25ea41	0.16202642
145	0x3d819b63	0.06328466
146	0x3d37d114	0.044877127
147	0x3d775d45	0.060391683
148	0x3c103701	0.008802176
149	0x3dbca478	0.092110574
150	0xbcc51f94	-0.02406291
151	0xbd4af14e	-0.049546532
152	0x3d085dc5	0.03329255
153	0x3d14e732	0.036353298
154	0x3c8ec933	0.017429924
155	0x3dd44306	0.10364346
156	0xbd5010eb	-0.050797384
157	0xbd1ef9a5	-0.0388123
158	0xbce2846c	-0.027651034
159	0x3d55f6ad	0.0522372
160	0xbd6b9a3d	-0.05752014
161	0x3d8e5ead	0.06951652
162	0x3bc227f1	0.0059251715
163	0xbea016ef	-0.31267497
164	0xbd83105c	-0.06399605
165	0x3c4a1b00	0.012335539
166	0xbd04e0ce	-0.032440953
167	0xbd706487	-0.05868962
168	0xbddb11e4	-0.10696772
169	0xbddbc06c	-0.10730061
170	0xbeda55aa	-0.42643481
171	0xbdb7279e	-0.08943103
172	0x3e0e6c8b	0.13908593
173	0xbdd9dbb3	-0.106376074
174	0xbd91e9f7	-0.071247034
175	0xbe50bae1	-0.20383789
176	0xbe3424ff	-0.17592238
177	0xbe478979	-0.19486035
178	0x3b28c0e0	0.0025749728
179	0x3d51a692	0.051184244
180	0xbd8c1ac2	-0.06841041
181	0xbd518013	-0.05114753
182	0xbcff7bab	-0.0311869
183	0xbcf305e1	-0.02966589
184	0x3d57acda	0.05265508
185	0xbd1a34ff	-0.037648197
186	0x3a3b2932	0.00071396225
187	0x3bf7f4ec	0.0075670388
188	0x3d367377	0.04454371
189	0x3d8d128c	0.06888303
190	0x3d423906	0.047417663
191	0x3cc29e49	0.023757117
192	0x3d672107	0.05642798
193	0xbc88ce79	-0.016700016
194	0xbcb5c6bf	-0.022189496
195	0x3ced676c	0.02897998
196	0x3a76559e	0.0009396913
197	0x3d492fea	0.04911796
198	0xbdd35997	-0.10319822
199	0xbcbdda7f	-0.023175476
200	0xbdf8e9e0	-0.12153983
201	0xbca9cfe0	-0.020729005
202	0x3c704b21	0.01466635
203	0xbcec1028	-0.028816298
204	0xbc545ba5	-0.012961303
205	0x3caaf42a	0.02086838
206	0x3dd8b72f	0.105818145
207	0xbe3d4694	-0.18483955
208	0x3d5341ec	0.05157654
209	0x3d41363d	0.047170866
210	0xbda481cb	-0.080325685
211	0x3ca9a3a1	0.020707907
212	0x3e4982d9	0.1967882
213	0x3e11d162	0.1424003
214	0xbe656313	-0.22401075
215	0x3bbd20a6	0.0057717143
216	0x3dabb683	0.08384421
217	0xbdc01ce1	-0.09380508
218	0xbe25dd2c	-0.16197652
219	0x3e0bf064	0.1366592
220	0x3c7b0293	0.015320438
221	0xbe720be9	-0.23637356
222	0xbd2f8967	-0.042855646
223	0x3de08e19	0.10964603
224	0xbdd93f8e	-0.10607825
225	0xbe8bfd96	-0.27341908
226	0x3ca6d9e4	0.02036757
227	0xbc36b734	-0.0111520775
228	0x3dd942ab	0.10608419
229	0x3d952ba4	0.072837144
230	0x3d512f6a	0.05107061
231	0x3c57e524	0.01317719
232	0xbe05916a	-0.13043752
233	0xbd83ccdb	-0.064355575
234	0xbd3cbec6	-0.046080373
235	0xbe215419	-0.15754737
236	0x3d5ad23e	0.05342316
237	0x3d7abfdc	0.061218128
238	0xbd4e2430	-0.05032748
239	0x3c3f89cf	0.011690571
240	0xbdf5881a	-0.1198885
241	0xbe26261a	-0.16225472
242	0xbc8b5799	-0.017009543
243	0xbbc38e60	-0.0059679
244	0x3d2bdf4f	0.04196101
245	0xbccf8052	-0.025329743
246	0xbd08cd70	-0.033399045
247	0x3b660ffd	0.0035104745
248	0xbd97f819	-0.07420368
249	0xbd847521	-0.06467653
250	0xbe36cf6d	-0.17852564
251	0xbe3d1cb0	-0.18467975
252	0xbe24c51f	-0.1609082
253	0xbe42ae95	-0.1901191
254	0xbe543431	-0.20723034
255	0xbdec4cc5	-0.1153808

classifier.1.bias f4 [10]
0	0x3cbe31bc	0.023217075
1	0x3d0d1a9b	0.0344492
2	0xbc5409ba	-0.012941772
3	0xbb26eac0	-0.0025469512
4	0xbcd3735c	-0.025811844
5	0x3ce27476	0.027643424
6	0xbd22d30a	-0.039752044
7	0xbd90d93e	-0.07072686
8	0xbcac1518	-0.021006152
9	0xbc9d9410	-0.01923564
