digit_classification/train_model/model1.pth (torch, 35484 bytes, 10 tensors)

block_1.0.weight f4 [10, 3, 3, 3]
0	0x3d6193fb	0.055072766
1	0xbdb3f69d	-0.08787272
2	0x3db45db2	0.088069335
3	0x3e369c79	0.17833127
4	0x3dedbb95	0.11608044
5	0xbd83d9b0	-0.06438005
6	0x3deebb06	0.11656766
7	0xbd6f09de	-0.05835902
8	0xbd44e948	-0.048074037
9	0x3e56f01c	0.20990032
10	0x3db51427	0.088417344
11	0x3d3d4c5c	0.0462154
12	0x3e6cf904	0.23141867
13	0xbd328f14	-0.04359348
14	0xbe0fd7a6	-0.14047107
15	0xbe20d4f6	-0.15706238
16	0x3e00f5db	0.12593786
17	0xbe635c08	-0.22203076
18	0x3c46e549	0.012139627
19	0xbddb0db9	-0.10695977
20	0x3dd09ce0	0.101861715
21	0x3d03a83b	0.03214286
22	0x3e69ed51	0.22844435
23	0x3d870822	0.06593348
24	0xbe10f9d7	-0.14157806
25	0x3e241106	0.16022119
26	0xbe1871b3	-0.14887123
27	0x3dd55c6c	0.10418019
28	0x3db79fee	0.08966051
29	0xbc0eb21e	-0.008709459
30	0xbe23cdcf	-0.15996478
31	0xbdcda98b	-0.100421034
32	0x3de5903a	0.1120915
33	0xbe00414d	-0.1252491
34	0xbe3d124f	-0.18464015
35	0x3d4c65e2	0.04990185
36	0xbdd1ce6f	-0.10244452
37	0xbd3439e6	-0.04400053
38	0x3df48383	0.11939146
39	0xbe0feb65	-0.1405464
40	0x3e365e20	0.17809343
41	0x3e24cfdb	0.16094916
42	0xbe348f33	-0.17632751
43	0xbe2406c6	-0.16018209
44	0x3e02b0f2	0.12762812
45	0xbe267a8c	-0.16257685
46	0x3df33af6	0.1187648
47	0x3e19aa2d	0.15006323
48	0xbc4c6314	-0.012474794
49	0x3e2107fa	0.15725699
50	0xbda4584e	-0.08024655
51	0xbe0f6775	-0.1400431
52	0xbe2cb83e	-0.16867158
53	0x3e0643bc	0.13111776
54	0x3e6950d4	0.2278474
55	0x3e0e9561	0.13924171
56	0xbc99651a	-0.018724967
57	0xbcb38ab6	-0.021916728
58	0xbd067a17	-0.032831278
59	0xbcbc9027	-0.023017956
60	0x3e522f91	0.20525958
61	0x3db3098c	0.08742055
62	0xbe17d0bc	-0.1482572
63	0x3e0ccd72	0.13750246
64	0x3e5f48df	0.21805142
65	0x3daafd4d	0.083490945
66	0xbc48c1d7	-0.012253246
67	0xbdad3b9c	-0.08458635
68	0xbc4c0506	-0.01245237
69	0x3e1059c5	0.14096744
70	0x3d34f4e0	0.044178843
71	0x3e3666d2	0.1781266
72	0x3e288f66	0.16460952
73	0x3e417dfc	0.18895715
74	0x3d845568	0.064616024
75	0xbd016c1d	-0.031597245
76	0xbe0ab807	-0.13546763
77	0x3bf45218	0.0074560754
78	0x3e3a2c4e	0.18180963
79	0xbdc3f8a6	-0.0956891
80	0x3e059f7b	0.13049118
81	0xbdfe422e	-0.124149665
82	0x3e15d247	0.14630996
83	0xbc396886	-0.011316424
84	0x3ce0476b	0.027377805
85	0xbdf2e98b	-0.11860951
86	0x3c9a214e	0.018814709
87	0xbd210b14	-0.039317206
88	0x3e33de86	0.17565355
89	0x3d31a509	0.04337028
90	0xbe786cce	-0.24260256
91	0x3cc38daa	0.023871262
92	0x3dbf0cbf	0.09328603
93	0x3d227c68	0.039669424
94	0x3e0d0368	0.1377083
95	0x3e67919d	0.22614141
96	0xbdf41a42	-0.11919071
97	0x3e55039d	0.2080216
98	0x3e68561a	0.22689095
99	0xbe194c53	-0.14970522
100	0xbd5886b6	-0.052862845
101	0x3e2ac423	0.16676383
102	0xbe1a4cdd	-0.15068384
103	0xbd18de7a	-0.037321545
104	0x3cb9c3a0	0.02267629
105	0x3da5f516	0.08103387
106	0xbd534de1	-0.051587943
107	0xbd106ba9	-0.035258923
108	0xbdc9d5a5	-0.098552026
109	0xbd89655e	-0.067087874
110	0x3e62cf12	0.22149304
111	0x3df0780d	0.11741648
112	0x3e22f4c7	0.15913688
113	0xbdc29413	-0.09500899
114	0x3dc40238	0.09570736
115	0x3e6749f0	0.22586799
116	0xbd89c196	-0.06726377
117	0xbbd72fe6	-0.0065669892
118	0x39161033	0.0001431115
119	0xbda7854c	-0.08179721
120	0x3c83f6f1	0.016108962
121	0xbdfc1d2b	-0.12310251
122	0x3da1e60c	0.07905206
123	0xbde4a363	-0.11163976
124	0x3d568e48	0.052381784
125	0xbd9b959f	-0.07596897
126	0xbd2b1b29	-0.04177395
127	0x3d5f8641	0.054571394
128	0x3dd1c3ad	0.102424
129	0xbe3e8d13	-0.18608503
130	0xbdcdea59	-0.10054464
131	0xbdea787d	-0.114487626
132	0xbd5ab929	-0.05339924
133	0x3e194c31	0.14970471
134	0x3e7fce85	0.24981125
135	0x3dd8ace6	0.10579853
136	0xbd639bb9	-0.05556843
137	0x3e4f4e1f	0.20244645
138	0x3ce7546e	0.028238501
139	0x3dc245a5	0.0948594
140	0x3c54e89a	0.01299491
141	0x3e8b09c3	0.27155885
142	0x3e71db45	0.23618801
143	0xbe163a22	-0.14670613
144	0x3e74a5de	0.23891398
145	0x3e4d440d	0.2004549
146	0xbc490874	-0.012270082
147	0x3e2c902b	0.1685187
148	0x3e72d690	0.23714662
149	0x3cb2ce33	0.02182684
150	0x3e8f5b7a	0.2799948
151	0x3e684598	0.22682798
152	0x3e65670d	0.22402592
153	0xbb87aa39	-0.004140165
154	0x3e86b705	0.26311508
155	0xbd8f0f17	-0.069853
156	0xbc20b0f8	-0.009807818
157	0x3e63fc3a	0.22264186
158	0x3e1d3cc1	0.15355207
159	0x3e237a26	0.15964565
160	0x3e9cc73b	0.3062075
161	0xbdc148b2	-0.09437694
162	0xbe5020b3	-0.20324974
163	0x3e383521	0.17989017
164	0x3e3c42d3	0.18384866
165	0xbe2352a5	-0.15949495
166	0xbc744aa2	-0.014910372
167	0xbdc1e284	-0.094670326
168	0xbe39444f	-0.18092464
169	0xbcc3a4b8	-0.023882255
170	0x3d6b7ef8	0.057494134
171	0xbd976c0a	-0.07393654
172	0xbd97bf34	-0.07409516
173	0x3ddf8eea	0.109159306
174	0xbde48aa2	-0.111592546
175	0xbe2e4e1f	-0.17021988
176	0x3d9313e6	0.0718153
177	0xbd6c3b41	-0.057673696
178	0xbe2830f8	-0.1642493
179	0x3e398426	0.18116817
180	0x3e14d299	0.14533462
181	0x3e16c1a1	0.14722301
182	0x3cab58d7	0.020916386
183	0x3ceb55f6	0.028727513
184	0xbd8f7753	-0.07005181
185	0x3e013561	0.12618019
186	0xbe04cf06	-0.12969598
187	0xbcee2e43	-0.029074794
188	0x3e41b1b9	0.18915452
189	0xbc502fb8	-0.01270669
190	0xbddf1787	-0.10893159
191	0xbe0ab47a	-0.13545409
192	0xbda836d6	-0.08213584
193	0x3ddf8be1	0.10915352
194	0x3deecdc8	0.116603434
195	0x3e6aeae8	0.22941172
196	0xbdf258b8	-0.11833328
197	0xbe028d7c	-0.12749285
198	0xbc47811a	-0.012176776
199	0xbc562576	-0.013070455
200	0x3df6a7ce	0.12043725
201	0xbcbfc334	-0.02340851
202	0xbe2acdf7	-0.16680132
203	0x3e1db667	0.15401612
204	0x3e6abd07	0.2292367
205	0xbd37d093	-0.044876646
206	0x3e06a823	0.13150077
207	0xbc799f70	-0.015235767
208	0xbe11793e	-0.14206406
209	0xbceafe10	-0.0286856
210	0xbd01cb77	-0.03168818
211	0xbd8a1968	-0.06743127
212	0x3e095143	0.13409905
213	0x3dd83a50	0.10557997
214	0xbd91fa50	-0.071278214
215	0xbd9a6dc9	-0.07540471
216	0x3cf10f11	0.02942613
217	0xbd516019	-0.051117036
218	0xbe2831cc	-0.16425246
219	0xbc92de10	-0.017928153
220	0x3e1fdfc5	0.15612705
221	0x3dbb53df	0.091468565
222	0x3e1d0fc2	0.15338042
223	0x3d898a7f	0.06715869
224	0x3e65fda6	0.2246004
225	0xbe19cdde	-0.15019938
226	0x3e1bfed2	0.15233925
227	0x3d32f3af	0.043689426
228	0xbdb329cb	-0.08748206
229	0xbe0fba39	-0.14035882
230	0x3e3d843f	0.18507479
231	0x3d60c15c	0.054871902
232	0xbdd5c330	-0.1043762
233	0xbd8c73fc	-0.0685806
234	0xbe66c080	-0.2253437
235	0xbe36a1f9	-0.17835225
236	0xbd0fd539	-0.035115454
237	0x3d36778f	0.044547614
238	0xbdf1f6ca	-0.118146494
239	0x3cbc06d3	0.022952473
240	0x3d9dcc42	0.07704975
241	0x3c981d8b	0.018568775
242	0x3e535091	0.20636202
243	0xbe027e46	-0.12743482
244	0xbd8100ea	-0.062990025
245	0xbd2fede4	-0.04295148
246	0xbd803e78	-0.06261915
247	0xbd5ab9ac	-0.053399727
248	0xbe3d6601	-0.18495943
249	0xbe1c33c8	-0.15254128
250	0xbde7d06a	-0.11319049
251	0x3d5fbe1c	0.05462466
252	0xbd88af08	-0.066740096
253	0x3e229c07	0.15879832
254	0xbab9f200	-0.0014186502
255	0xbdaf41f3	-0.08557501

block_1.0.bias f4 [10]
0	0x3c8ec567	0.017428113
1	0x3e765665	0.24056394
2	0xbe76dcf9	-0.24107732
3	0x3e3aca0f	0.18241142
4	0xbd4bdac0	-0.049769163
5	0x3d090209	0.033449207
6	0x3dd5b581	0.1043501
7	0xbc3732f9	-0.011181586
8	0xbd948df7	-0.0725364
9	0xbe001254	-0.12506992

block_1.2.weight f4 [10, 10, 3, 3]
0	0xbd67b2b3	-0.056566905
1	0xbd857016	-0.06515519
2	0x3d312353	0.04324658
3	0x3d28d699	0.04122028
4	0xbdaced67	-0.084437184
5	0xbd777bbe	-0.060420744
6	0x3dfde1cd	0.12396584
7	0x3ceb69eb	0.028737029
8	0x3d7e42e8	0.062075526
9	0x3e2ecaaf	0.17069505
10	0x3eb5a28f	0.35475585
11	0x3e84c1d9	0.25929144
12	0x3c0de71f	0.008661061
13	0x3eb0b4da	0.3451298
14	0x3e9c3739	0.30510882
15	0x3d2ea3a0	0.042636514
16	0x3e4c532a	0.199536
17	0x3e30e5ad	0.17275114
18	0xbc28e5b0	-0.010308668
19	0xbe149d56	-0.14513144
20	0xbdc83036	-0.097748205
21	0xbdfe1120	-0.1240561
22	0xbd5d0155	-0.05395635
23	0xbda0c065	-0.07849196
24	0xbbea942d	-0.007158777
25	0x3bb015d2	0.005373695
26	0x3ce1fd93	0.027586734
27	0xbd5e3155	-0.054246265
28	0xbcd43e98	-0.025908753
29	0x3e07fc94	0.13279945
30	0xbd8032b1	-0.062596686
31	0x3df2b0e5	0.11850146
32	0x3e554476	0.20826897
33	0xbd9c1604	-0.07621387
34	0x3d428c98	0.047497362
35	0x3e5116ef	0.20418905
36	0x3cfcd6ef	0.030864207
37	0xbe001149	-0.12506594
38	0x3dd180c1	0.10229636
39	0x3d957f13	0.07299628
40	0x3d91c322	0.07117297
41	0x3e0d3deb	0.13793151
42	0x3d25d993	0.040490698
43	0x3d08d7ec	0.033409044
44	0x3d14615d	0.036225665
45	0x3cec46d0	0.02884236
46	0x3ab49189	0.0013776283
47	0xbca73889	-0.0204127
48	0xbda76007	-0.08172613
49	0xbdf60f85	-0.12014679
50	0x3d3e8808	0.04651645
51	0x3cd8f393	0.026483333
52	0x3cffe665	0.03123779
53	0x3db4b769	0.08824045
54	0x3e2969e7	0.16544305
55	0x3e53a9f6	0.20670304
56	0x3dfe92f5	0.124303736
57	0xbc0bcdb2	-0.008532928
58	0x3e80c912	0.25153404
59	0x3e1ef622	0.1552358
60	0xbdc88036	-0.09790079
61	0x3e0e429f	0.13892601
62	0x3e7c34fb	0.24629585
63	0x3e09b4b7	0.13447843
64	0x3df9fcb6	0.12206404
65	0xbcee6193	-0.029099261
66	0x3e6051fd	0.21906276
67	0x3ca915ec	0.020640336
68	0x3a619238	0.0008604857
69	0x3d3d3ea6	0.046202324
70	0x3d3c6e12	0.04600341
71	0xbcf897f0	-0.030345887
72	0xbdb613a1	-0.08890463
73	0xbd4f655b	-0.05063377
74	0x3e252a85	0.16129501
75	0x3d908515	0.070566334
76	0x3dc8f6c2	0.0981269
77	0x3c34fae3	0.011046144
78	0xbc91fe20	-0.017821372
79	0x3e23eccf	0.16008304
80	0x3e54377e	0.20724294
81	0x3d768276	0.06018301
82	0x3a4ea280	0.0007882491
83	0x3d8d34cb	0.06894835
84	0xbd94f401	-0.072731026
85	0x3d20bce2	0.039242633
86	0x3d981f27	0.07427817
87	0x3d61d012	0.055130072
88	0x3db2f06d	0.08737264
89	0xbd3f22ce	-0.04666405
90	0xbc885579	-0.016642319
91	0x3d5a33f5	0.053272206
92	0x3d02945f	0.03187978
93	0x3dcfb69f	0.10142254
94	0xbd9d8f5a	-0.07693358
95	0x3b4e04de	0.0031436007
96	0x3cc1050b	0.023561975
97	0x3d831b50	0.06401694
98	0xbd2bccae	-0.041943245
99	0x3e46b4f3	0.19404964
100	0x3e82c0e1	0.2553778
101	0x3e6da319	0.23206748
102	0x3e484935	0.19559176
103	0x3e42ff47	0.19042693
104	0x3ed32492	0.41238838
105	0x3e1c05fa	0.15236655
106	0x3e7bd3a1	0.24592449
107	0x3eb4e914	0.35334074
108	0x3c1406ed	0.009034854
109	0x3ca96b04	0.020680912
110	0xbdba8498	-0.091073215
111	0xbd09979a	-0.033591844
112	0xbdb98e3e	-0.09060334
113	0xbd7dc721	-0.061957482
114	0xbb05b49b	-0.0020401839
115	0x3ca2fb91	0.019895347
116	0xbba7efb6	-0.0051250113
117	0x3dcfa912	0.101396695
118	0x3db49d44	0.088190585
119	0x3e0e908b	0.13922326
120	0x3ce0c07d	0.027435536
121	0xbd3a2e33	-0.045454215
122	0x3dd74edc	0.10513088
123	0xbd6642ae	-0.056215934
124	0x3d980f24	0.07424763
125	0x3c4dc020	0.012558013
126	0xbd9ff96c	-0.07811245
127	0xbd5bff6c	-0.053710386
128	0x3d93e7c6	0.07221942
129	0xbd4dee54	-0.050276116
130	0x3d09a74a	0.033606805
131	0x3da52257	0.080631904
132	0xbbd02617	-0.006352197
133	0xbdc53066	-0.09628372
134	0x3d4cc2e8	0.049990565
135	0xbc3b6505	-0.011437659
136	0xbcfa2c08	-0.030538574
137	0xbbb09868	-0.005389262
138	0xbca62684	-0.020282038
139	0xbdf14769	-0.117811985
140	0x3d6e67e7	0.058204558
141	0x3c0fb7e3	0.008771869
142	0x3dab4ce2	0.083642736
143	0xbd5fa816	-0.05460366
144	0x3e32fbe5	0.17478903
145	0x3e9fe347	0.31228086
146	0x3e6649e8	0.2248913
147	0xbccdc8c8	-0.025120154
148	0x3da96fc0	0.08273268
149	0x3e87a925	0.26496235
150	0x3dbe3481	0.09287358
151	0x3e359093	0.17730932
152	0x3e82a6f6	0.25518006
153	0x3d0ab9bd	0.03386854
154	0xbd48fd6a	-0.0490698
155	0x3a449a12	0.0007499765
156	0xbdaa06ea	-0.083021
157	0x3dd2d566	0.10294609
158	0xbe5c22eb	-0.21497695
159	0xbe1cefa7	-0.15325795
160	0x3e39ca80	0.18143654
161	0x3d9b2eda	0.075772956
162	0x3c7bee4e	0.0153766405
163	0xbdb07bf3	-0.086173914
164	0xbbd45d98	-0.006480884
165	0xbe04c5d7	-0.12966095
166	0xbdc9f1a7	-0.09860545
167	0x3e089822	0.13339284
168	0xbe0df628	-0.13863432
169	0x3d90640b	0.07050332
170	0x3dbf8ccf	0.09353029
171	0xbc7639b8	-0.01502841
172	0xbc7fd168	-0.015613891
173	0x3c5cf8e0	0.013487071
174	0x3dd0adf3	0.10189428
175	0xbdae7c50	-0.085198045
176	0x3bd4ef00	0.0064982176
177	0x3db0e31b	0.08637067
178	0x3dcfd35f	0.10147738
179	0xbdb11cfd	-0.08648107
180	0xbd70b38f	-0.05876499
181	0x3d5aedfa	0.05344961
182	0xbcc7d32f	-0.024392692
183	0x3ddddeea	0.10833533
184	0x3da6e937	0.08149951
185	0x3da990e5	0.082795896
186	0x3dad0ca1	0.084496744
187	0x3d5372c3	0.051623117
188	0xbd1d6e0e	-0.038435034
189	0xbe8bcc0e	-0.2730412
190	0xbe91c528	-0.2847073
191	0xbe151678	-0.14559352
192	0xbe764268	-0.2404877
193	0xbe811a5d	-0.25215426
194	0xbe59182b	-0.21200626
195	0xbe900ed2	-0.28136307
196	0xbe16987e	-0.14706609
197	0xbdde8bb4	-0.1086649
198	0xba4a14da	-0.00077087956
199	0xbd23e888	-0.04001668
200	0xbd4c9f43	-0.04995657
201	0x3ca33669	0.019923406
202	0xbd5020e6	-0.050812624
203	0xbd01acf9	-0.0316591
204	0x3e3bbe23	0.1833425
205	0x3d915798	0.07096785
206	0x3de6c101	0.11267281
207	0xbd468628	-0.048467785
208	0xbe05b1ed	-0.13056155
209	0xbdff685c	-0.12471077
210	0x3d14f8be	0.03637003
211	0xbd18f6ab	-0.037344616
212	0xbe093f79	-0.13403119
213	0x3e05f121	0.13080265
214	0x3bb738dc	0.005591495
215	0xbe38d785	-0.18050964
216	0xbc856a89	-0.016286151
217	0x3b2fc995	0.0026823033
218	0xbda1d6ea	-0.0790232
219	0xbda0130d	-0.07816134
220	0xbdc15655	-0.09440295
221	0xbd849300	-0.064733505
222	0xbd96d414	-0.073646694
223	0x3ca5c66b	0.020236215
224	0xbde90363	-0.11377599
225	0x3e182c26	0.14860591
226	0xbcd043db	-0.025422981
227	0x3ce0fc7e	0.027464148
228	0x3daddede	0.08489774
229	0x3d850baf	0.06496369
230	0x3d3fc51e	0.046818845
231	0x3e280c00	0.16410828
232	0x3dc747a5	0.09730462
233	0x3d171044	0.036880746
234	0xbe4041b6	-0.18775067
235	0xbe2a05b0	-0.16603732
236	0xbd84aba7	-0.064780526
237	0xbe1acbdf	-0.15116833
238	0xbe81f922	-0.25385386
239	0xbe1927ae	-0.14956543
240	0xbe8e9096	-0.27844685
241	0xbe293199	-0.16522826
242	0xbe42c152	-0.19019058
243	0x3e0304bf	0.12794779
244	0xbcad01ca	-0.021119017
245	0x3d623cc9	0.05523375
246	0x3e06984c	0.13144034
247	0x3d96df78	0.07366842
248	0x3dcf079b	0.101088725
249	0xbc799c87	-0.015235073
250	0xbe18b9c3	-0.14914612
251	0x3d8aa4e8	0.067697346
252	0x3d2742d7	0.040835228
253	0x3e1333c2	0.14375213
254	0xbd48c675	-0.04901739
255	0x3de4222f	0.111393325

block_1.2.bias f4 [10]
0	0x3e1a9dd3	0.15099268
1	0x3defdd6d	0.117121555
2	0xbd6fe8a9	-0.05857149
3	0xbd18bbe6	-0.03728857
4	0xbd14cee4	-0.03633012
5	0xbe16fa44	-0.14743906
6	0xbda2d6cd	-0.07951126
7	0x3cce982c	0.025219046
8	0xb87ad910	-5.98068e-05
9	0x3e119076	0.14215264

block_2.0.weight f4 [10, 10, 3, 3]
0	0x3e848ae1	0.25887206
1	0x3e47a453	0.19496278
2	0x3ea27bf4	0.31735194
3	0x3e0faccc	0.1403076
4	0x3cec97cb	0.028880974
5	0xbcb5fcd9	-0.022215294
6	0x3d3150e7	0.043290045
7	0xbe72abde	-0.23698375
8	0xbe315150	-0.17316175
9	0x3ccbcf26	0.02487905
10	0x3ddc36cf	0.107526414
11	0x3e1f4e09	0.15557112
12	0x3c48d943	0.0122588305
13	0xbdda2a0a	-0.106525496
14	0xbdd686b6	-0.10474913
15	0xbc2fea4a	-0.010737011
16	0xbe0e35d1	-0.13887717
17	0xbec19b33	-0.3781372
18	0x3c002fde	0.007823912
19	0xbdad5056	-0.084625885
20	0xbd253c80	-0.0403409
21	0x3d911fe3	0.0708616
22	0x3dcb40d0	0.099244714
23	0x3e036186	0.12830171
24	0x3d9cfe6d	0.07665715
25	0x3c8c0093	0.017090118
26	0x3dd87eec	0.105710834
27	0xbd499ca1	-0.04922164
28	0x3d5ac8d0	0.053414166
29	0xbdd5758d	-0.10422812
30	0x3d25265b	0.04031978
31	0xbd92ebf9	-0.071739145
32	0x3d4006eb	0.046881597
33	0x3db279a3	0.087146066
34	0x3d9ada65	0.07561187
35	0x3dba32d6	0.090917274
36	0xbdcd9f26	-0.10040121
37	0xbd5b2b87	-0.053508308
38	0xbdb1137f	-0.08646297
39	0xbda858bd	-0.082200505
40	0x3d1f57ca	0.03890208
41	0x3c74e818	0.014947914
42	0x3dd1a2d7	0.10236137
43	0xbdc0cd53	-0.094141625
44	0x3d8c9d33	0.06865921
45	0xbcab734f	-0.020929007
46	0xbdd28ebe	-0.10281132
47	0x3cf00e25	0.02930362
48	0x3d946d9c	0.07247469
49	0x3dcb4ec7	0.09927135
50	0xbdf4d599	-0.11954803
51	0x3cca3df3	0.024687743
52	0x3daa1fb3	0.083068274
53	0x3b17ff0d	0.0023192794
54	0xbe2a4209	-0.16626753
55	0xbc9615e6	-0.018320989
56	0xbdea35e2	-0.114360586
57	0xbce021eb	-0.027359923
58	0x3d8dfda4	0.06933144
59	0xbcab32d9	-0.02089827
60	0xbbbe8359	-0.0058139977
61	0x3e225ad1	0.15854956
62	0x3e8a2840	0.26983833
63	0xbe04200d	-0.12902851
64	0xbcc824d1	-0.024431618
65	0x3e221f3c	0.15832227
66	0x3d4d3d6c	0.050107405
67	0xbd895ad2	-0.06706776
68	0xbe8c4a01	-0.2740021
69	0x3ca6bb2b	0.02035292
70	0xbe3804ff	-0.17970656
71	0xbe657d4d	-0.2241108
72	0xbd95ec51	-0.073204644
73	0xbd12b382	-0.035815723
74	0xbddbfb06	-0.10741238
75	0xbd001579	-0.031270478
76	0x3d9670f2	0.07345761
77	0x3d8a7a25	0.067615785
78	0x3db09b53	0.08623376
79	0x3e4ed9ab	0.20200221
80	0x3d53aa70	0.051676214
81	0x3e5efa11	0.2177508
82	0x3e524c70	0.20536971
83	0x3e684bb0	0.22685122
84	0x3e201215	0.15631898
85	0x3e62b047	0.22137557
86	0xbd86b4b0	-0.06577432
87	0xbdf4881b	-0.119400226
88	0xbdf24131	-0.118288405
89	0xbed4e455	-0.41580454
90	0x3c490e53	0.012271482
91	0xbd8294e1	-0.06376053
92	0x3b13cb00	0.0022551417
93	0xbdef899b	-0.11696168
94	0xbd4c6dbf	-0.04990935
95	0x3d0e3d45	0.0347264
96	0x3c067259	0.008205974
97	0xbdea6694	-0.114453465
98	0xbdf70106	-0.12060742
99	0xbdfd70f1	-0.123750575
100	0xbda39c16	-0.079887554
101	0xbde070a7	-0.10958987
102	0xbd1dacc9	-0.03849486
103	0xbd334847	-0.0437701
104	0x3ce3a3b1	0.027788015
105	0xbdee5ef2	-0.11639203
106	0xbd3a74c3	-0.04552151
107	0xbcd1dfe9	-0.025619464
108	0xbde7d29e	-0.11319469
109	0xbd50e877	-0.051002946
110	0xbdf32141	-0.11871577
111	0xbd7ffa68	-0.062494665
112	0xbdb3318f	-0.08749687
113	0xbde8a59b	-0.11359712
114	0x3d42e85e	0.047584884
115	0x3d84d0d3	0.064851426
116	0xbd448987	-0.04798272
117	0x3cba2e1c	0.022727065
118	0x3cb6f6af	0.022334425
119	0x3d755bca	0.05990199
120	0x3d9a581d	0.075363375
121	0xba507523	-0.0007952025
122	0xbdad105f	-0.08450388
123	0x3c4acfb7	0.012378625
124	0xbbdd9dda	-0.006763202
125	0x3d35d20e	0.044389777
126	0xbd9bc2a3	-0.076054834
127	0x3db4640b	0.08808144
128	0xbc9ff004	-0.019523628
129	0x3d9061df	0.070499174
130	0x3c6e8848	0.014558859
131	0x3c94c8bc	0.018162124
132	0xbd7a17a9	-0.06105772
133	0x3dcde4f3	0.10053434
134	0x3d018dbe	0.031629317
135	0xbaeefe80	-0.0018233806
136	0x3dcc758d	0.099833585
137	0xbd89d324	-0.06729725
138	0x3cfd897c	0.030949347
139	0xbc3ee438	-0.011651091
140	0xbd2af05c	-0.04173313
141	0x3d10a602	0.035314567
142	0x3a1f3880	0.0006073788
143	0xbcbefb80	-0.023313284
144	0xbdd468ce	-0.103715524
145	0xbd1ae4b3	-0.03781576
146	0xbdc280a5	-0.09497193
147	0xbc9e8a7c	-0.019353144
148	0x3d4509a4	0.048104897
149	0x3d22880f	0.039680537
150	0x3d856cb4	0.06514874
151	0x3cdf56eb	0.027263125
152	0xbd7ff915	-0.062493403
153	0x3c88373f	0.016627906
154	0xbc90eed4	-0.017692007
155	0xbde18f63	-0.11013677
156	0xbc056f6d	-0.008144242
157	0xbcfeb27b	-0.031090965
158	0xbd8f69f8	-0.07002634
159	0xbd95a376	-0.07306568
160	0xbd5664d2	-0.052342243
161	0x3d82629c	0.063664645
162	0x3cabd7e8	0.020976976
163	0xbdabe0fd	-0.083925225
164	0x3c832070	0.016006678
165	0xbd85963e	-0.06522797
166	0x3d124b28	0.035716206
167	0xbdee180a	-0.11625679
168	0xbcd00048	-0.02539076
169	0xbd012a86	-0.031534694
170	0xbda94e74	-0.08266917
171	0x3da4c1df	0.080447905
172	0xbd671643	-0.056417715
173	0x3d79a77a	0.060950734
174	0x3c971ab1	0.018445345
175	0xbc1a7a2d	-0.009428543
176	0xbd7c2545	-0.06155898
177	0xbcd337ba	-0.025783408
178	0xbb6d5ba7	-0.003621796
179	0xbc001208	-0.007816799
180	0x3d351d4e	0.0442174
181	0x3d8d9ea6	0.069150254
182	0xbd0152d8	-0.031573147
183	0xbceff848	-0.029293194
184	0xbd4b2a63	-0.04960097
185	0xbdd92c4a	-0.106041506
186	0x3cc1e5ad	0.023669088
187	0x3a98bf4b	0.001165369
188	0x3b3b1773	0.0028547912
189	0xbd3a4b32	-0.045481868
190	0x3bcd5524	0.006266253
191	0xbd92dc17	-0.07170885
192	0xbd9aedc7	-0.07564884
193	0xbc45318f	-0.0120357415
194	0x3d2995cf	0.041402634
195	0xbdbe4823	-0.09291103
196	0xbc9b2024	-0.018936224
197	0xbdeb720f	-0.11496364
198	0xbcdc83e1	-0.026918354
199	0x3cb4e7ca	0.022083182
200	0xbd07258f	-0.032994803
201	0x3d807c4b	0.06273707
202	0x3d206c2f	0.039165672
203	0x3c7e2c5e	0.015513508
204	0x3a80596b	0.0009792274
205	0xbdbb6bd9	-0.0915143
206	0xbd04c584	-0.032414928
207	0xbd80678a	-0.062697485
208	0x3d7a3f9e	0.061095826
209	0xbdc08bdc	-0.09401676
210	0x3daf15a3	0.08549049
211	0xbda9fbf7	-0.083000116
212	0x3da5ff5b	0.08105346
213	0x3d8e1af9	0.069387384
214	0x3dbe1155	0.092806496
215	0xbdb6b25f	-0.0892074
216	0x3c6572b8	0.014004402
217	0x3d5dc8de	0.05414664
218	0xbd29cd18	-0.04145536
219	0xbd8e6dc8	-0.06954533
220	0x3d2f021e	0.04272663
221	0x3da97527	0.08274298
222	0xbd3a0bfd	-0.04542159
223	0xbd2a398e	-0.041558795
224	0x3b7de840	0.0038743168
225	0xbd525475	-0.051350076
226	0x3cff85a4	0.031191655
227	0x3cf98ab4	0.030461647
228	0xbdb7ff50	-0.08984244
229	0xbc7576b5	-0.014981915
230	0xbd8abcec	-0.06774315
231	0xbcc3727c	-0.023858301
232	0x3dafc207	0.0858193
233	0xbd5f7687	-0.054556396
234	0xbdb4d770	-0.08830154
235	0xbca33c17	-0.019926114
236	0xbcec8bcd	-0.028875256
237	0xbc7e983c	-0.015539225
238	0xbcfc93fd	-0.030832285
239	0x3d9561cc	0.07294044
240	0x3d50d10a	0.050980605
241	0x3b485ab5	0.0030571644
242	0xbd9ecd63	-0.07754018
243	0x3d57568a	0.052572764
244	0xbd551640	-0.052023172
245	0xbdeacd72	-0.11464967
246	0xbd2acc94	-0.041699007
247	0x3cfa4068	0.03054829
248	0xbd86dd53	-0.06585183
249	0xbd61c5dd	-0.055120338
250	0x3c621cf5	0.013800849
251	0xbcd4a781	-0.025958778
252	0xbdb0f845	-0.08641104
253	0xbda787d9	-0.08180208
254	0xbd4e09e2	-0.050302394
255	0xbd825d5e	-0.06365465

block_2.0.bias f4 [10]
0	0x3b6b5826	0.0035910695
1	0xbc371c9d	-0.0111762555
2	0xbdd073ca	-0.10178335
3	0xbe1591ca	-0.14606395
4	0xbd05dd02	-0.032681473
5	0x3e32561e	0.17415664
6	0xbd4e2db4	-0.050336555
7	0x3d655a95	0.05599459
8	0x3dac649d	0.08417628
9	0xbb41f400	-0.0029594898

block_2.2.weight f4 [10, 10, 3, 3]
0	0x3c70b78a	0.014692197
1	0xbe37a3c8	-0.17933571
2	0xbd034866	-0.032051466
3	0x3d1ae27f	0.03781366
4	0xbdc4e3c6	-0.09613757
5	0xbd9da8b5	-0.07698194
6	0x3b455ef1	0.0030116404
7	0x3dc212da	0.09476252
8	0x3c414ef1	0.011798606
9	0xbdc49825	-0.09599332
10	0x3c82aca9	0.015951471
11	0xbc9e86c7	-0.019351376
12	0x3c563cf7	0.013076059
13	0x3cd6a359	0.026200937
14	0xbdacc22c	-0.08435473
15	0xbd9b3b2d	-0.07579646
16	0x3d9de00d	0.0770875
17	0x3de1766b	0.110089146
18	0x3c4a9b73	0.012366164
19	0x3b35f740	0.002776578
20	0xbd48346a	-0.04887811
21	0x3d342553	0.043980908
22	0xbda747a6	-0.08167963
23	0x3c8afdd0	0.01696673
24	0xbd0e06d5	-0.034674484
25	0x3ccb20a4	0.024795838
26	0x3d32f6eb	0.04369251
27	0xbd26c90d	-0.04071908
28	0xbda2aee5	-0.07943515
29	0x3cf10c5d	0.02942484
30	0x3cdc5947	0.02689804
31	0x3d5a107d	0.05323838
32	0x3d990a77	0.07472699
33	0xbd1ad20a	-0.037797965
34	0xbba747c6	-0.0051049916
35	0x3dd84814	0.10560623
36	0xbd7fbd4c	-0.062436387
37	0x3e51ecc5	0.20500477
38	0x3d9354c8	0.07193905
39	0xbdc92826	-0.09822111
40	0x3e4df88b	0.20114343
41	0x3e1052a6	0.14094028
42	0xbe3a2814	-0.18179351
43	0xbd268b9a	-0.04066048
44	0x3e4c0ba1	0.19926311
45	0x3e75e73f	0.24013995
46	0x3e1afd6a	0.15135732
47	0x3d4f6fa8	0.050643593
48	0x3e73b687	0.23800097
49	0x3e6ce7ff	0.23135374
50	0x3d16af4c	0.03678827
51	0x3c7da597	0.015481374
52	0x3e5696fc	0.20956033
53	0x3e4fd7ed	0.20297213
54	0x3cbd3811	0.023098024
55	0x3db0cfc4	0.08633378
56	0x3d8cdc4b	0.06877955
57	0xbda3a6ae	-0.07990776
58	0xbd3d4a78	-0.046213597
59	0x3e15b8f3	0.14621334
60	0xbc35df97	-0.011100671
61	0xbcaeb6f0	-0.021327466
62	0x3d8d9af3	0.0691432
63	0x3ce9aac2	0.028523806
64	0xbd13ad38	-0.036053866
65	0x3b40ac15	0.0029399444
66	0x3d20b4df	0.039234992
67	0xbe3a7cfa	-0.18211737
68	0xbdf45c12	-0.119316235
69	0xbcbf48ed	-0.023350203
70	0xbb62c1f7	-0.0034600475
71	0x3c0623d0	0.008187249
72	0xbddf913f	-0.10916375
73	0xbe16c3c0	-0.1472311
74	0xbe12b2c6	-0.14326009
75	0xbd4e4d0b	-0.050366443
76	0xbe74504b	-0.23858754
77	0xbe2ef010	-0.17083764
78	0x3da1259e	0.07868503
79	0xbe43ad42	-0.19109061
80	0xbd4881d8	-0.048951954
81	0x3d83222d	0.06403003
82	0x3d871e61	0.06597591
83	0xbd93287c	-0.07185456
84	0x3ce03cb4	0.027372696
85	0xbd67d101	-0.056595806
86	0x3d7819d2	0.0605715
87	0xbd87a3d4	-0.066230446
88	0xbd52df96	-0.05148276
89	0x3cf934e4	0.030420728
90	0xbd51e308	-0.051241904
91	0xbd55ff49	-0.052245412
92	0x3c0a9b77	0.008459917
93	0x3d190a83	0.03736354
94	0x3d47a697	0.048742857
95	0xbde6c438	-0.112678945
96	0xbc7dd38d	-0.015492332
97	0xbdc331f8	-0.09531015
98	0xbde7f654	-0.1132628
99	0x3da0e58d	0.07856283
100	0x3c80f78e	0.015743043
101	0xbcfaff9f	-0.030639468
102	0xbd4fadfd	-0.050703038
103	0xbb455c8d	-0.003011498
104	0xbd155499	-0.03645763
105	0x3d71e2a8	0.059054047
106	0xbd9a08a0	-0.07521176
107	0x3c965eda	0.018355776
108	0xbd17d2d1	-0.037066285
109	0x3d3cce8c	0.046095416
110	0x3cb285cc	0.021792315
111	0x3d8ababf	0.067739
112	0x3d4b5329	0.049639855
113	0x3d480fb8	0.048843116
114	0xbafab1ae	-0.0019126439
115	0xbdb295db	-0.08719989
116	0x3d7a5807	0.061119106
117	0x3d7510a5	0.059830327
118	0xbd3c4543	-0.04596449
119	0x3db50c0f	0.088401906
120	0xbd041a3d	-0.032251585
121	0xbd7afa4d	-0.06127386
122	0xbd7f850c	-0.062382743
123	0x3d308e5e	0.043104522
124	0x3da99b77	0.08281606
125	0x3c0a793a	0.008451754
126	0xbdf05aa8	-0.11736041
127	0xbe092f29	-0.13396896
128	0x3d5b36bf	0.053519007
129	0xbd6e3d85	-0.05816414
130	0xbd9c6952	-0.07637276
131	0xbdaed728	-0.085371315
132	0x3cee9049	0.029121535
133	0x3c88567a	0.016642798
134	0x3d2f69af	0.042825397
135	0xbb230bbb	-0.0024878818
136	0xbde878c2	-0.11351158
137	0x3d4bedd3	0.049787354
138	0xbd8ca7fc	-0.06867978
139	0xbd1bab76	-0.038005315
140	0xbe13231c	-0.14368862
141	0xbd86d916	-0.065843746
142	0xbd6f7f74	-0.05847116
143	0xbdf914a4	-0.1216214
144	0xbe2298f3	-0.15878658
145	0xbd8f97ab	-0.0701135
146	0xbcc00283	-0.023438698
147	0xbd819b9a	-0.06328507
148	0xbdb5748f	-0.088601224
149	0xbdd58bc8	-0.10427052
150	0xbd68745c	-0.056751594
151	0xbe1e8f8c	-0.15484446
152	0xbdc3b8f3	-0.09556761
153	0x3db8dc7f	0.09026431
154	0xbdbfd304	-0.0936642
155	0xbc8afb3a	-0.016965497
156	0xbbb09067	-0.005388308
157	0x3c8647ce	0.016391661
158	0xbe33fcd5	-0.17576917
159	0xbe04e860	-0.12979269
160	0x3d0649e1	0.0327853
161	0xbcac9736	-0.021068197
162	0x3dbf79c0	0.09349394
163	0x3db6c7e2	0.08924843
164	0x3e27e104	0.1639443
165	0x3da248d6	0.079240486
166	0x3dfec8e3	0.1244066
167	0x3e110b1b	0.14164393
168	0xbc223a6d	-0.009901625
169	0x3df0a822	0.11750819
170	0xbd3edbec	-0.046596453
171	0xbdc155d3	-0.09440198
172	0x3d2ee5f2	0.04269976
173	0xbd8c8018	-0.068603694
174	0xbd199d6a	-0.037503637
175	0x3c7a5118	0.015278123
176	0xbdd667e9	-0.10469038
177	0xbda4c01e	-0.08044456
178	0x3dc48f05	0.09597591
179	0xbd3d41bf	-0.04620528
180	0xbdb4d358	-0.08829373
181	0xbe6e7204	-0.23285681
182	0xbe170b4a	-0.147504
183	0xbd32241c	-0.043491468
184	0xbc754163	-0.014969203
185	0xbdd6cb05	-0.10487942
186	0x3d981adb	0.07426997
187	0x3ccacc61	0.024755659
188	0x3def79c7	0.11693149
189	0xbd663da6	-0.056211136
190	0x3d1e5336	0.038653575
191	0x38dddc64	0.00010579152
192	0xbd75e580	-0.06003332
193	0x3c3fd234	0.011707831
194	0x3d021de4	0.031766787
195	0xbd4c5502	-0.049885757
196	0x3d91d85e	0.07121347
197	0xbd1280f4	-0.03576751
198	0x3cc1a84b	0.023639819
199	0xbd13148b	-0.035908263
200	0x3d52bb72	0.051448293
201	0xbd33ef5c	-0.043929443
202	0x3d7b65e4	0.061376467
203	0x3d99d9fd	0.07512281
204	0x3daa8d6c	0.08327755
205	0x3dc5bbac	0.09654936
206	0xbc90df54	-0.017684616
207	0xbd7be4ea	-0.061497606
208	0xbd54cf66	-0.051955603
209	0x3d024358	0.031802505
210	0x3d24037e	0.040042393
211	0xbd5dabc2	-0.05411888
212	0xbda78519	-0.08179683
213	0x3cb59fc3	0.022170907
214	0xbaae8756	-0.001331548
215	0x3c725fab	0.014793317
216	0xbcbbf996	-0.02294616
217	0xbabdc05d	-0.0014476884
218	0xbc93d97b	-0.018048039
219	0xbdcfe854	-0.10151735
220	0x3d766d77	0.060162988
221	0x3e02b509	0.12764372
222	0x3d726908	0.059182197
223	0xbcb810b8	-0.02246891
224	0x3dcbb934	0.09947434
225	0xbc198cb6	-0.009371927
226	0x3d49ef9c	0.049300775
227	0x3d7be9b8	0.06150219
228	0xbd144b13	-0.03620441
229	0x3e46a66b	0.19399421
230	0x3e4c50bd	0.19952674
231	0xbd87ff10	-0.06640446
232	0x3e081057	0.13287483
233	0x3e308c11	0.17240931
234	0x3dd98c0b	0.10622414
235	0x3df66d88	0.1203261
236	0x3ddbd14d	0.1073328
237	0xbe0cae4a	-0.13738361
238	0x3d09448e	0.033512644
239	0x3d1375a3	0.03600086
240	0x3d3cda01	0.046106342
241	0x3d603a25	0.05474295
242	0x3e10c369	0.14137043
243	0xbcedb642	-0.029017571
244	0xbda57ed5	-0.08080832
245	0xbda64ef7	-0.0812053
246	0xbe001225	-0.12506922
247	0xbbceb26b	-0.00630789
248	0xbe11a706	-0.1422387
249	0x396b37c7	0.00022432125
250	0xbe2657ed	-0.16244479
251	0xbd498e3a	-0.049207903
252	0x3d249576	0.0401816
253	0x3dabb506	0.08384137
254	0xbdfa0176	-0.1220731
255	0xbdc24991	-0.09486688

block_2.2.bias f4 [10]
0	0x3d8f92b1	0.07010401
1	0xbd408538	-0.047002047
2	0x3d82425c	0.06360313
3	0x3ceda685	0.029010067
4	0xbc763b16	-0.015028736
5	0xbd9912da	-0.07474299
6	0x3d6d35ab	0.05791251
7	0x3d19cec0	0.037550688
8	0x3d2f375a	0.042777397
9	0x3d9fd925	0.07805089

classifier.1.weight f4 [10, 490]
0	0x3afbec7b	0.0019220257
1	0xbdff7470	-0.124733806
2	0xbd4c39cb	-0.049859803
3	0xbc51ef5b	-0.012813414
4	0xbd92df10	-0.07171452
5	0xbd7d9022	-0.061905034
6	0x3c231fd5	0.00995632
7	0x3b9dc641	0.0048148935
8	0xbdd0d2e3	-0.101964734
9	0xbd9ba54e	-0.07599889
10	0xbc24f025	-0.010067021
11	0xbb9c0a38	-0.0047619604
12	0xbd100d7b	-0.035169106
13	0xbd3b30ac	-0.045700714
14	0x3d1f46d7	0.038885918
15	0x3c3afa05	0.011412148
16	0xbd94b600	-0.07261276
17	0xbdd88596	-0.105723545
18	0x3df21de1	0.11822105
19	0x3dc42b90	0.095786214
20	0x3d13b990	0.036065638
21	0x3de9ee06	0.114223525
22	0x3e22935f	0.1587653
23	0x3b96823e	0.004593163
24	0xbe930bf9	-0.28720072
25	0xbdc32875	-0.09529201
26	0x3db8945b	0.090126716
27	0x3d93adf9	0.07210917
28	0x3d565bd9	0.052333687
29	0x3dc3b196	0.09555356
30	0x3d816d71	0.063197024
31	0xbe0f7bec	-0.14012116
32	0xbdd0ec94	-0.10201374
33	0xbd4ce152	-0.05001957
34	0x3c945e0c	0.018111251
35	0xbdbf5ebe	-0.093442425
36	0xbc39b9e6	-0.011335826
37	0x3d3bf17a	0.045884587
38	0x3c32b7d4	0.010908086
39	0xbced3cd0	-0.028959662
40	0xbda71d50	-0.08159888
41	0xbc1a9a43	-0.009436193
42	0xbc176a8c	-0.009241711
43	0xbe1ec34b	-0.15504186
44	0xbd362778	-0.044471234
45	0x3d315ccb	0.043301385
46	0xbd9c30ce	-0.07626496
47	0xbe047d27	-0.12938367
48	0xbdc4b283	-0.09604361
49	0xbcc45063	-0.023964113
50	0xbcc64974	-0.024204947
51	0x3cd831fc	0.026391022
52	0xbc601042	-0.013675751
53	0x3d127e3d	0.03576492
54	0x3d11fad8	0.035639614
55	0xbc908341	-0.017640712
56	0x3caaa105	0.020828733
57	0x3c22f861	0.009946913
58	0x3c4d7ff2	0.012542712
59	0xbd650201	-0.055910114
60	0x3d66cb32	0.056346126
61	0xbc535b99	-0.012900257
62	0x3d5d8bdf	0.05408847
63	0x3b6a4ec4	0.0035752514
64	0xbd5eb9fe	-0.054376595
65	0xbcc5f2df	-0.024163662
66	0x3db6d5ae	0.08927475
67	0xbccaf15d	-0.024773294
68	0xbc91f78f	-0.01781824
69	0x3d1f5113	0.038895678
70	0xbcf8b05f	-0.030357538
71	0xbe08716a	-0.13324514
72	0x3d028821	0.031868104
73	0x3e115f21	0.14196445
74	0x3d7f1f84	0.062285915
75	0xbdd96f28	-0.106169045
76	0xbcb31ef6	-0.02186535
77	0xbd0dff1e	-0.034667127
78	0xbd825a5a	-0.063648894
79	0xbc7d9991	-0.015478508
80	0x3d7b32a2	0.061327584
81	0x3b916e00	0.004438162
82	0x3c1bd795	0.009511848
83	0x3ceddc9b	0.029035857
84	0x3baaa863	0.0052080615
85	0x3c6e0a6c	0.014528852
86	0xbd44c8bd	-0.048043
87	0xbdaebcb2	-0.085320845
88	0xbdc1f424	-0.09470394
89	0x3d74f23c	0.059801325
90	0xbc070160	-0.008240074
91	0x3c8d5b0b	0.017255327
92	0x3c9f2c8b	0.01943042
93	0xbb5d9936	-0.0033813245
94	0xbada0d11	-0.0016635974
95	0xbc78e425	-0.015191113
96	0x3ccadd8a	0.024763841
97	0xbc8e4f2b	-0.017371735
98	0x3c33098e	0.010927571
99	0xbd5953ec	-0.05305855
100	0xbc779742	-0.015111746
101	0xbda75c94	-0.08171955
102	0xbd8e124a	-0.06937082
103	0xbc660cec	-0.014041167
104	0xbd059f7a	-0.03262279
105	0xbd5bc687	-0.053656127
106	0xbdcbf39f	-0.099585764
107	0xbd7fb0ab	-0.062424343
108	0x3cae99b4	0.021313526
109	0xbc066aed	-0.008204204
110	0xbd032d84	-0.03202583
111	0xbd3e7601	-0.046499256
112	0x3dae8678	0.08521742
113	0x3da38e05	0.079860725
114	0xbc8be594	-0.017077245
115	0xbdda6abf	-0.106648915
116	0x3d8d6956	0.06904857
117	0x3dd45a40	0.10368776
118	0x3c398f28	0.011325635
119	0x3dcadf58	0.09905881
120	0x3df267de	0.11836217
121	0xbda3f6dc	-0.08006069
122	0xbe8edbed	-0.27902165
123	0xbccc0820	-0.024906218
124	0xbb81a8b3	-0.003956878
125	0x3d1c5033	0.03816242
126	0x3da594e7	0.080850415
127	0x3e07c6f4	0.13259488
128	0x3ddabdc0	0.10680723
129	0xbc49e2d9	-0.012322151
130	0xbcebf66f	-0.028804032
131	0xbcd503ac	-0.026002727
132	0x3c1bee60	0.009517282
133	0xbd31942b	-0.043354195
134	0xbc7f80fb	-0.015594716
135	0x3d36169a	0.04445515
136	0x3d8fcafa	0.070211366
137	0x3c3ba61b	0.011453177
138	0xbdf4cc47	-0.11953025
139	0x3b5f7ae9	0.003410036
140	0x3c9536b0	0.018214554
141	0xbdfff34b	-0.12497576
142	0xbda61c56	-0.081108734
143	0xbd657db4	-0.056028083
144	0xbda19c68	-0.0789116
145	0xbd450977	-0.04810473
146	0xbc0306af	-0.007997199
147	0xbcadf88e	-0.021236684
148	0xbd181d32	-0.037137218
149	0xbd020c48	-0.031749994
150	0x3daa282d	0.08308444
151	0x3be81d41	0.0070835655
152	0x3ce1dbbf	0.027570603
153	0xbd117538	-0.03551218
154	0xba419e9f	-0.0007386002
155	0x3d174a4f	0.0369361
156	0x3d22cd86	0.039746784
157	0xbba087f0	-0.0048990175
158	0xbd01f248	-0.031725198
159	0x3d30bbc1	0.043147806
160	0x3d47b009	0.048751865
161	0x3da0f2e5	0.078588285
162	0x3c204147	0.009781188
163	0x3cc66237	0.024216754
164	0xbca42733	-0.020038223
165	0x3d89d4b5	0.06730024
166	0x3c3e39e8	0.011610486
167	0x3c8dcc5c	0.01730936
168	0x3d65c44c	0.056095406
169	0x3c95c56e	0.018282618
170	0xbda499fb	-0.08037182
171	0x3d99b48c	0.0750514
172	0x3e18fb2e	0.14939567
173	0xbd6fcb13	-0.058543276
174	0xbcf4f7e8	-0.029903367
175	0x3c762808	0.015024193
176	0x3c1229ef	0.008921131
177	0xbbb6e125	-0.0055810385
178	0x3df0eed4	0.11764303
179	0x3db92091	0.09039415
180	0xbd919149	-0.07107789
181	0xbb09ce26	-0.0021027415
182	0xbd201687	-0.039083984
183	0xbcdf1185	-0.027230034
184	0x3c822bea	0.01589008
185	0x3d583aff	0.052790638
186	0xbd1ef7d3	-0.038810562
187	0x3cc6158d	0.024180198
188	0x3d73e6a6	0.059546135
189	0x3b946457	0.004528563
190	0xbb33025f	-0.0027314646
191	0x3c3411a3	0.010990533
192	0x3bdb239d	0.006687595
193	0x3c96325a	0.018334556
194	0x3d0b99ec	0.03408234
195	0x3d1aec3a	0.03782294
196	0x3bcddb80	0.00628227
197	0xbc1ce534	-0.009576131
198	0xbdc2db75	-0.09514514
199	0xbd59caae	-0.053171806
200	0xbd7a0f12	-0.06104953
201	0xbc56899b	-0.013094331
202	0x3c4f554f	0.0126546165
203	0xbd7a848c	-0.061161563
204	0x3c400ec3	0.0117222695
205	0xbd206bda	-0.039165355
206	0xbca82209	-0.020524042
207	0xbd4f03f8	-0.050540894
208	0x3c450fc0	0.012027681
209	0xbd2e3dd7	-0.042539444
210	0x3ca62929	0.020283299
211	0xbd3968b3	-0.045265865
212	0xbc66af7e	-0.014079927
213	0xbcaa9f5a	-0.020827938
214	0xbd7368a6	-0.059425972
215	0xbd35443b	-0.044254523
216	0x3ccd35f8	0.025050148
217	0x3c9ae8a5	0.018909762
218	0xbcd3a08c	-0.02583339
219	0xb9aebf3e	-0.00033330353
220	0x3be371dd	0.006941064
221	0xbd602a1e	-0.054727666
222	0xbd7558f3	-0.05989928
223	0xbd21f460	-0.039539695
224	0xbcff9c65	-0.031202504
225	0xbceec7a7	-0.029147936
226	0xbcea2040	-0.028579831
227	0xbd4fa9b4	-0.05069895
228	0xbd940120	-0.07226777
229	0x3c825130	0.015907854
230	0x3c8c50da	0.017128397
231	0xbc6ba3ff	-0.014382361
232	0x3c8c568c	0.017131113
233	0xbd814c29	-0.063133545
234	0xbd8af38f	-0.06784736
235	0xbcdba5f9	-0.02681254
236	0x3cc64f2b	0.024207672
237	0x3c2b63e0	0.010460824
238	0xbc3c0de4	-0.011477921
239	0x3bf19128	0.0073720403
240	0xbd4a3145	-0.049363393
241	0xbd3e7400	-0.046497345
242	0xbaf4212a	-0.0018625606
243	0xbc823f28	-0.015899256
244	0xbd6331bc	-0.055467352
245	0xbc13a392	-0.009011166
246	0x3d6fab35	0.058512885
247	0x3a99b427	0.0011726663
248	0x3d2108e6	0.039315127
249	0xbb9da8fd	-0.0048114047
250	0x3ced2560	0.028948486
251	0x3d4617c5	0.048362512
252	0xbbfc5613	-0.0077006905
253	0x3cd8ed58	0.026480362
254	0x3b9ab373	0.004721099
255	0x3c7810b9	0.015140706

classifier.1.bias f4 [10]
0	0xbcca89fb	-0.024723997
1	0x3d3a59cb	0.04549579
2	0x3c7884e8	0.015168406
3	0xbb385140	-0.00281246
4	0x3d0a7ca1	0.03381026
5	0x3c159c92	0.009131568
6	0xbc7ce5ba	-0.01543563
7	0x3b954f28	0.0045565553
8	0xbc33d1b1	-0.010975287
9	0xbbf44ed5	-0.0074556866
