digit_classification/train_model/model.pth (torch, 35484 bytes, 10 tensors)

block_1.0.weight f4 [10, 3, 3, 3]
0	0x3e0f5a2c	0.13999242
1	0x3d6c4694	0.057684496
2	0x3d30e47a	0.043186642
3	0x3d9f5363	0.07779577
4	0xbdbbd8e5	-0.09172229
5	0x3e10f294	0.14155036
6	0xbe651f60	-0.2237525
7	0x3d60a660	0.054846168
8	0x3d0254d7	0.03181919
9	0x3e283963	0.16428141
10	0x3e04f77d	0.12985034
11	0x3d9d7d91	0.076899655
12	0xbe42a687	-0.19008838
13	0x3bfb6bdf	0.0076727713
14	0xbdd457b2	-0.10368289
15	0xbe370a19	-0.17874946
16	0xbd11a42b	-0.035556953
17	0x3d8ac9c8	0.06776768
18	0x3de2d8ce	0.110765085
19	0xbd6fb9e2	-0.05852688
20	0x3dbbb33d	0.09165046
21	0x3dfc893c	0.12330863
22	0x3d8b849d	0.06812403
23	0x3ae3c596	0.0017377611
24	0xbe050a9a	-0.12992325
25	0xbd804336	-0.062628195
26	0x3e3a3556	0.18184409
27	0xbe7ba0a6	-0.24573001
28	0xbe35d13d	-0.177556
29	0x3e894465	0.26809993
30	0x3d8fef8f	0.07028114
31	0x3e2d7005	0.16937263
32	0x3ea19249	0.3155692
33	0xbe281e39	-0.16417779
34	0x3dad4ed5	0.08462302
35	0x3e538913	0.20657758
36	0x3dba3c92	0.09093584
37	0x3e2c61b9	0.16834153
38	0x3e3e38ad	0.18576308
39	0xbde2616c	-0.11053738
40	0x3d4a259e	0.04935228
41	0x3e9f300b	0.3109134
42	0xbdabe03b	-0.08392378
43	0xbdaa75b3	-0.083232306
44	0x3e5a43be	0.21314904
45	0x3d9508c4	0.072770625
46	0x3d822d89	0.063563414
47	0x3e7eccb8	0.24882782
48	0xbe78b9a1	-0.24289562
49	0xbdac662b	-0.084179245
50	0x3d94362b	0.07236894
51	0xbe1d789a	-0.15378037
52	0x3dbd4eea	0.09243567
53	0x3dae47d6	0.08509795
54	0x3e2d8362	0.1694465
55	0x3e6d83f1	0.23194863
56	0x3d920a76	0.071309015
57	0x3e746633	0.23867111
58	0xbcc74759	-0.024326013
59	0xbe7ad602	-0.244957
60	0x3dfee020	0.12445092
61	0xbc3a7b95	-0.011382003
62	0xbdc434d5	-0.095803894
63	0xbd3f43f2	-0.046695657
64	0x3e6a77b4	0.22897226
65	0xbe61fab5	-0.22068293
66	0x3ea01de5	0.31272808
67	0x3e797fbd	0.24365135
68	0xbe88bc46	-0.2670614
69	0x3e98b614	0.29826415
70	0xbbc718ab	-0.0060759387
71	0x3d5adc86	0.053432964
72	0x3e9d43d7	0.3071582
73	0x3d68191c	0.05666457
74	0x3c9b79cd	0.018978978
75	0x3e3c46ac	0.18386334
76	0x3e207c66	0.15672454
77	0xba8bd4ce	-0.0010668279
78	0x3e907d9e	0.28220838
79	0x3e6cb4b8	0.23115814
80	0xbdae9a43	-0.08525517
81	0xbdea3ad1	-0.114369996
82	0xbdecb832	-0.1155857
83	0xbd667b32	-0.056269832
84	0x3ca64c34	0.020300008
85	0xbdbb02ab	-0.09131368
86	0xbda6ed7c	-0.08150765
87	0x3e3eb0ee	0.18622181
88	0x3c045523	0.008076939
89	0xbdbf7ea0	-0.09350324
90	0xbe2dd724	-0.16976601
91	0x3e06a9a0	0.13150644
92	0xbdc98ab6	-0.0984091
93	0xbe34aefe	-0.17644879
94	0x3dcfc588	0.10145098
95	0x3dfad7b4	0.12248173
96	0x3d1ad820	0.03780377
97	0xbdcb3051	-0.09921325
98	0xbe1cb998	-0.15305173
99	0x3d92d6a8	0.07169849
100	0xbceb645e	-0.028734382
101	0xbe4b55b1	-0.19856907
102	0xbe652669	-0.22377934
103	0xbbca3171	-0.0061704447
104	0xbdc74d6c	-0.09731564
105	0x3d312cd6	0.04325565
106	0xbe2fa1ac	-0.17151517
107	0x3e00855c	0.12550873
108	0xbe22aa7f	-0.15885352
109	0xbdbe1381	-0.09281064
110	0x3ddd29f9	0.10799021
111	0xbe4ef4df	-0.20210598
112	0x3d0accd8	0.03388676
113	0x3e65ef8f	0.22454666
114	0xbc99009c	-0.018677048
115	0x3d4dc4e3	0.050236594
116	0x3bbf241d	0.0058331625
117	0x3e14409b	0.1447777
118	0xbca7d4ab	-0.02048715
119	0x3dffbf6d	0.124876834
120	0x3dbd2138	0.092348516
121	0xbd549bc7	-0.051906373
122	0x3e0c6fab	0.13714473
123	0xbe63dde5	-0.22252615
124	0x3e306f69	0.1723
125	0x3e57460e	0.21022817
126	0xbae097fd	-0.001713514
127	0xbd3c0620	-0.04590428
128	0x3e46f0fc	0.19427866
129	0x3e1a7429	0.15083374
130	0xbe0f3e35	-0.13988574
131	0xbc55ad19	-0.013041758
132	0xbe46ddbb	-0.19420521
133	0xbdaad7d1	-0.08341945
134	0xbdb5a411	-0.08869184
135	0xbcfe1542	-0.031015996
136	0x3e849085	0.2589151
137	0x3d4021d5	0.046907265
138	0xbdac0667	-0.08399659
139	0x3e85c2c6	0.26125163
140	0x3ea262b5	0.31715932
141	0x3e24a367	0.16077958
142	0x3d983583	0.074320816
143	0x3e7d7266	0.24750671
144	0xbe1b8d56	-0.15190634
145	0x3dba122d	0.09085498
146	0x3d1e40df	0.038636085
147	0xbdf6fbcd	-0.12059746
148	0x3d9ce3a0	0.076606035
149	0x3d2e346d	0.042530466
150	0x3e18bf5f	0.14916752
151	0xbdaafa46	-0.08348517
152	0x3e0d6080	0.13806343
153	0xbe5259d7	-0.20542084
154	0x3e7eef28	0.24895918
155	0x3e4afb25	0.19822367
156	0xbe5a7850	-0.21334958
157	0x3e8ff060	0.2811308
158	0x3ea127bb	0.31475624
159	0xbe3cea6c	-0.184488
160	0x3e3b8349	0.183118
161	0x3e8c1162	0.27357012
162	0x3dc77ff7	0.09741204
163	0x3dcbf073	0.099579714
164	0xbe664bc1	-0.22489835
165	0x3e6cd7f8	0.2312926
166	0x3dcf2e05	0.101161994
167	0xbdf16e55	-0.11788622
168	0x3e0e7881	0.13913156
169	0x3e0fbff8	0.14038074
170	0xbd2f17ae	-0.042747192
171	0x3e15e483	0.14637952
172	0x3e761b6b	0.24033897
173	0xbe26e488	-0.16298115
174	0x3d67403b	0.05645774
175	0xbe0855d2	-0.13313988
176	0xbd840c2d	-0.06447635
177	0x3e7f9771	0.24960114
178	0xbe0d6a61	-0.13810112
179	0xbd8d79a5	-0.069079675
180	0x3e4cd57c	0.20003313
181	0x3e446f25	0.19183023
182	0xbd2f86ad	-0.042853046
183	0x3db5ed91	0.08883203
184	0x3e203902	0.15646747
185	0xbe43aec1	-0.19109632
186	0x3ca3ca73	0.019993996
187	0xbe267862	-0.1625686
188	0xbdf0687f	-0.11738681
189	0x3c1758bd	0.009237465
190	0xbda4a2b2	-0.08038844
191	0xbe587225	-0.21137293
192	0x3e08a029	0.13342346
193	0x3c7f04d3	0.015565115
194	0xbe8995e2	-0.26872164
195	0x3e066881	0.13125803
196	0xbc5c3845	-0.01344115
197	0x3d5e1b33	0.054225158
198	0xbe132a97	-0.14371715
199	0x3e0c82b3	0.13721733
200	0xbdbbfa8b	-0.09178647
201	0x3e771e8b	0.24132745
202	0x3c8584bf	0.01629865
203	0x3cf72589	0.030169265
204	0x3e6c2888	0.23062336
205	0xbe1aa93c	-0.1510362
206	0x3e06d40e	0.1316683
207	0xbc371cd8	-0.0111763105
208	0x3d887c7e	0.0666437
209	0xbdbc97df	-0.092086546
210	0xbd71f936	-0.059075557
211	0xbe487d89	-0.19579138
212	0xbe844579	-0.25834253
213	0xbdb01f86	-0.085997626
214	0x3d817adc	0.06322262
215	0xbe196001	-0.14978029
216	0x3e210777	0.15725504
217	0xbd22112e	-0.039567165
218	0xbb7e77e4	-0.0038828785
219	0xbe51dccb	-0.20494382
220	0x3e20fc1a	0.15721169
221	0xbd830a01	-0.063983925
222	0x3d0b674d	0.034034062
223	0xbd4190e0	-0.047257304
224	0x3e38e176	0.18054757
225	0x3e4a71c8	0.19769967
226	0xbc38a91f	-0.01127079
227	0xbc552b2a	-0.013010779
228	0xbdaed46b	-0.08536609
229	0xbdfe0cf7	-0.124048166
230	0x3d8cc26e	0.06873022
231	0x3e3fec68	0.18742526
232	0x3d97b294	0.07407108
233	0x3e05213c	0.13000959
234	0x3e016ed4	0.12639934
235	0xbd83c9cd	-0.06434975
236	0x3d24e004	0.0402527
237	0xbe37dc29	-0.17955078
238	0xbdbc89d1	-0.09205974
239	0x3e1e616d	0.15466852
240	0xbdeb7b34	-0.114981085
241	0x3e0988b1	0.1343105
242	0x3e3486e0	0.17629576
243	0x3e39706f	0.18109296
244	0x3e758341	0.2397585
245	0xbe0e8ed6	-0.13921675
246	0xbda3d9fb	-0.08000561
247	0x3da07f50	0.07836783
248	0xbe63028f	-0.22168945
249	0x3e82f9ba	0.2558115
250	0xbd99bbe8	-0.075065434
251	0x3de536a9	0.11192066
252	0x3e5cc752	0.2156041
253	0x3e6e64f7	0.23280703
254	0xbe4f36d3	-0.20235758
255	0x3cdadb0d	0.02671578

block_1.0.bias f4 [10]
0	0xbe4fe478	-0.20301998
1	0x3d671c1e	0.0564233
2	0xbd84b6c8	-0.06480175
3	0xbc28f1ba	-0.010311538
4	0x3dc599d3	0.0964848
5	0x3e027448	0.1273967
6	0x3e392a41	0.18082525
7	0x3e236068	0.15954745
8	0xbdbd0781	-0.09229947
9	0x3d7a339c	0.061084375

block_1.2.weight f4 [10, 10, 3, 3]
0	0xbdc219e6	-0.09477596
1	0xbe1ad291	-0.15119387
2	0xbc14dbfd	-0.009085652
3	0xbdc1eaa1	-0.0946858
4	0xbe00ed36	-0.12590489
5	0x3c461214	0.012089271
6	0x3df1fe01	0.118160255
7	0xbd7856c8	-0.060629636
8	0xbe0b8b2f	-0.13627313
9	0xbddcc8ef	-0.107805125
10	0xbe633f97	-0.22192226
11	0x3cf600eb	0.030029735
12	0xbdd2d613	-0.10294738
13	0xbe0725fa	-0.1319808
14	0x3d9e6810	0.07734692
15	0xbe2a95cb	-0.16658704
16	0xbe411950	-0.18857312
17	0xbb077d87	-0.0020674185
18	0x3e4c05aa	0.19924036
19	0x3c83187a	0.016002882
20	0xbe248a5d	-0.16068406
21	0x3e39081e	0.18069503
22	0x3d65aa70	0.056070745
23	0xbe1620b2	-0.1466091
24	0x3e26bfce	0.16284105
25	0x3dcb8e05	0.099391975
26	0xbe0501c3	-0.12988953
27	0xbe4c6e62	-0.19963983
28	0xbe2bb5ea	-0.16768613
29	0xbdc367cc	-0.09541282
30	0xbe16b757	-0.14718376
31	0x3d11f031	0.035629455
32	0xbe0f685f	-0.14004658
33	0xbdeb5e91	-0.114926465
34	0x3b18314b	0.002322274
35	0xbde40a0e	-0.1113473
36	0xbe042669	-0.12905277
37	0xbd5c4cd5	-0.05378421
38	0x3e53de2f	0.20690225
39	0xbdda8e5d	-0.10671685
40	0xbdf40a0d	-0.119159795
41	0x3d7fb5f2	0.062429376
42	0xbe3324f4	-0.17494565
43	0x3db3757d	0.087626435
44	0x3db9ca30	0.09071767
45	0xbd8a22a9	-0.06744892
46	0xbdbd34c9	-0.092385836
47	0x3bb046c1	0.0053795283
48	0x3d8448e9	0.06459219
49	0xbe367c99	-0.17820968
50	0xbd8f195f	-0.06987261
51	0x3db5aae0	0.088704824
52	0xbe27f1a7	-0.16400777
53	0x3d6ba11a	0.057526685
54	0x3e179f48	0.14806855
55	0x3e8fb5d4	0.2806841
56	0x3d92ec18	0.071739376
57	0x3e79ef3a	0.24407664
58	0x3dd2f994	0.103015095
59	0x3d644a34	0.055734828
60	0x3e9b6e2c	0.30357492
61	0x3dc9566b	0.09830936
62	0xbdff654f	-0.12470495
63	0x3db3f80b	0.08787545
64	0x3dcd6f97	0.1003105
65	0x3db4b6b3	0.088239096
66	0x3d8679a3	0.06566169
67	0x3e1f0401	0.15528871
68	0xbd8ab724	-0.067732126
69	0x3e8dcc4d	0.27694932
70	0x3c9b57ba	0.01896273
71	0x3dffd95d	0.12492631
72	0x3dc8019b	0.09765931
73	0xbd7732e9	-0.060351286
74	0x3cec4834	0.028843023
75	0x3ddbb841	0.10728503
76	0x3c9c2ec0	0.01906526
77	0xbcef27fe	-0.029193874
78	0x3d0ec92f	0.034859832
79	0xbd70ec9e	-0.058819406
80	0x3dbc87d2	0.09205593
81	0x3dea7cd0	0.11449587
82	0x3c1823d7	0.009285889
83	0xbc63fd6b	-0.0139154
84	0x3e79e3c0	0.24403286
85	0x3e15a9c1	0.14615537
86	0xbd37302f	-0.044723686
87	0x3e961c8d	0.29318658
88	0xbbbc2772	-0.005742007
89	0xbe0cbea3	-0.13744597
90	0x3d3ce875	0.046120126
91	0xbd50cc9b	-0.050976377
92	0x3c16ab8b	0.0091961725
93	0xbdedade6	-0.11605434
94	0x3d755427	0.059894707
95	0xbceea6c1	-0.029132249
96	0xbe056be3	-0.13029437
97	0xbda05f62	-0.07830693
98	0x3c67418e	0.014114751
99	0x3c431d0d	0.011908782
100	0x3da1bee7	0.0789774
101	0xbdbfd556	-0.093668625
102	0x3d93db30	0.07219541
103	0x3d0bb089	0.034103904
104	0xbcd20cff	-0.025640963
105	0xbdefda09	-0.11711509
106	0xbc9d0138	-0.01916562
107	0x3d1e0633	0.03858013
108	0x3cd4c8ba	0.02597462
109	0xbd2e96de	-0.042624347
110	0xbbe96789	-0.007122938
111	0xbda3035f	-0.07959627
112	0xbd476f30	-0.04869002
113	0xbcadc3ce	-0.021211531
114	0xbd8b6c02	-0.0680771
115	0xbdb6aa52	-0.08919205
116	0xbdcd5f42	-0.100279346
117	0x3dac14c8	0.08402401
118	0xbdc815d3	-0.09769788
119	0x3d61b55f	0.05510461
120	0x3d4d5501	0.050129894
121	0x3d8a9e07	0.067684226
122	0x3d51b603	0.05119897
123	0x3d40198f	0.046899375
124	0xbd8383f4	-0.064216524
125	0x3d6741ca	0.056459226
126	0x3d5b5632	0.053549
127	0xbd13796f	-0.03600448
128	0xbd91667a	-0.07099624
129	0x3d9b6f2f	0.07589566
130	0x3d2ac74d	0.041693974
131	0xbbb34498	-0.0054708235
132	0xbd98e431	-0.07465399
133	0xbc6ddc8c	-0.0145179145
134	0x3d3dd32a	0.04634396
135	0x3c857b3e	0.016294118
136	0xbdadbb44	-0.08482984
137	0x3cd4c0c7	0.02597083
138	0x3d8d29d3	0.06892743
139	0xbdbc4c4f	-0.09194242
140	0xbdfa95c7	-0.12235599
141	0xbdf98b83	-0.12184813
142	0xbcb00a67	-0.021489335
143	0x3db1b6e3	0.08677461
144	0xbd12eeff	-0.035872456
145	0x3ddbcee9	0.10732824
146	0x3d56dc08	0.052455932
147	0xbd710e43	-0.05885149
148	0xbdac34ad	-0.084084846
149	0xbe00722c	-0.12543553
150	0xbd526ec4	-0.051375166
151	0x3c9f4798	0.019443318
152	0x3d69bbc9	0.05706385
153	0xbc33999d	-0.010961917
154	0x3da4d52d	0.080484726
155	0xbccbdf53	-0.024886763
156	0xbd830f8f	-0.06399452
157	0x3d8ec2b7	0.06970733
158	0xbd5f474f	-0.054511365
159	0xbd4527cc	-0.048133656
160	0xbd833522	-0.06406619
161	0xbdb18700	-0.08668327
162	0xbd4c7cfb	-0.04992388
163	0x3db1e7d7	0.08686798
164	0xbb1d4476	-0.0023997105
165	0xbd8c9f42	-0.068663135
166	0xbdc09cb2	-0.09404887
167	0xbd66e60b	-0.05637173
168	0x3cd72b23	0.026265686
169	0xbd3bfbe3	-0.045894515
170	0xbd95126b	-0.072789036
171	0x3d7847d6	0.060615383
172	0xbd729608	-0.059225112
173	0xbdbeb9b5	-0.093127646
174	0xbbc45d52	-0.00599257
175	0xbdac9f02	-0.08428766
176	0xbd0a4ccf	-0.033764657
177	0xbd05034f	-0.03247386
178	0x3df60f99	0.12014694
179	0xbb927a1a	-0.004470122
180	0xbd997017	-0.074920826
181	0xbe2a7ae6	-0.16648445
182	0xbddf9732	-0.1091751
183	0xbd436730	-0.04770583
184	0xbded3fd8	-0.11584443
185	0x3dc1c73d	0.0946183
186	0xbdbc4ce0	-0.0919435
187	0x3d7ccdb2	0.061719604
188	0xbd119ac7	-0.035547998
189	0xbe1e2c2e	-0.1544654
190	0xbe1b423b	-0.15161984
191	0xbe090f43	-0.13384728
192	0xbdf94896	-0.12172048
193	0xbe19f3a1	-0.15034343
194	0xbe3a2ad0	-0.18180394
195	0xbe0eeb61	-0.13956977
196	0xbdd9ff13	-0.10644355
197	0xbd667071	-0.056259576
198	0x3d89f099	0.067353435
199	0x3cea8367	0.02862711
200	0xbe1afdb3	-0.15135841
201	0x3d2e941c	0.042621717
202	0xbd90eb80	-0.07076168
203	0xbd680368	-0.056643873
204	0xbd2112dd	-0.03932463
205	0xbd8ad9cd	-0.067798235
206	0xbd15a8fe	-0.036538117
207	0xbddf7454	-0.1091086
208	0xbc8cb795	-0.017177382
209	0xbd53afb0	-0.05168122
210	0xbdd85f7f	-0.105650894
211	0x3e16021c	0.14649242
212	0x3d1db670	0.038504064
213	0x3ce2d298	0.02768831
214	0x3beb8742	0.007187755
215	0xbd5d3589	-0.054006133
216	0xbdbefa9c	-0.09325144
217	0xbe53cfa9	-0.20684685
218	0x3d946cbf	0.07247304
219	0xbdc1124c	-0.09427318
220	0xbd36ee6d	-0.044660974
221	0x3e44f929	0.19235672
222	0xbde8830b	-0.113531195
223	0xbda75dff	-0.08172225
224	0x3ddbe379	0.10736746
225	0x3da3735a	0.07980986
226	0xbd9a0e4b	-0.075222574
227	0xbd67b800	-0.05657196
228	0xbd8eb894	-0.06968799
229	0xbcb7a2e8	-0.022416547
230	0xbd2df1cf	-0.042466935
231	0xbd43c144	-0.047791734
232	0xbdf93341	-0.12167979
233	0xbdd1272e	-0.10212551
234	0x3e2d272a	0.16909471
235	0x3bf133a7	0.007360894
236	0xbddeb17e	-0.10873698
237	0x3d9ae21f	0.075626604
238	0x3d9db398	0.077002704
239	0xbd66834d	-0.056277562
240	0x3dbe1c80	0.0928278
241	0xbc4751ae	-0.01216547
242	0x3d2b8fc9	0.04188517
243	0x3e3dc11c	0.18530697
244	0x3d9084d8	0.07056588
245	0x3e0039f0	0.12522101
246	0x3ddeae01	0.10873032
247	0x3e24a382	0.16077998
248	0xbd1afe73	-0.037840318
249	0x3e36ab23	0.17838721
250	0xbb005ae5	-0.0019585427
251	0x3d6493bc	0.055804953
252	0x3e048937	0.12942968
253	0x3e1ca3a8	0.15296805
254	0x3d08fdd5	0.033445198
255	0x3daf58e5	0.08561877

block_1.2.bias f4 [10]
0	0x3e51f4b1	0.20503499
1	0xbb863adb	-0.0040963716
2	0xbdbc7911	-0.09202779
3	0x3d1be17e	0.038056843
4	0x3c1a0cef	0.009402498
5	0xbdfc6bfd	-0.12325285
6	0x3b68293e	0.0035424973
7	0xbc6b1bcd	-0.01434989
8	0xbc8f2c65	-0.017477224
9	0x3d3e9ffe	0.0465393

block_2.0.weight f4 [10, 10, 3, 3]
0	0xbdd383b7	-0.10327857
1	0x3d95e1b6	0.073184416
2	0xbd6fd25b	-0.05855022
3	0xbd56242a	-0.052280582
4	0x3c367f1c	0.011138704
5	0xbc2953ac	-0.01033489
6	0x3d6424d5	0.05569919
7	0x3d79ee42	0.061018236
8	0x3d1e0335	0.038577277
9	0xbde72cd0	-0.11287844
10	0xbcb8b3fb	-0.022546759
11	0xbd11122f	-0.03541773
12	0x3d0a489e	0.03376066
13	0xbb8ffd10	-0.004394181
14	0xbde3af8b	-0.111174665
15	0xbc597f12	-0.013274925
16	0xbe001ae7	-0.12510262
17	0x3d57adcc	0.05265598
18	0x3d2c34e2	0.04204262
19	0xbd952456	-0.07282321
20	0xbd22d72a	-0.039755978
21	0x3d8749bf	0.06605863
22	0xbd801233	-0.06253471
23	0xbcc02ad0	-0.023457915
24	0x3d800d7f	0.06252574
25	0xbd7db255	-0.06193765
26	0x3c94293c	0.018086068
27	0x3d6409c7	0.055673387
28	0xbdc463d7	-0.095893554
29	0xbc13d8c9	-0.009023854
30	0xbdbd1420	-0.09232354
31	0xbb268622	-0.002540954
32	0x3d265ca8	0.040615708
33	0xbd9d19a0	-0.07670903
34	0x3d236fed	0.039901663
35	0xbd13cdb7	-0.036084857
36	0x3d029caa	0.031887688
37	0xbd3d0c5d	-0.04615437
38	0x3d84bfa2	0.064818636
39	0xbd750dab	-0.059827488
40	0xbc31ab3b	-0.010844047
41	0xbd519d2d	-0.051175285
42	0xbc35eb18	-0.011103414
43	0x3dc16034	0.094421774
44	0xbd01b774	-0.031669095
45	0xbc9abf8b	-0.018890163
46	0x3d95c309	0.07312591
47	0xbdef2dda	-0.11678667
48	0xbd91ca0b	-0.07118615
49	0x3d92e74c	0.07173023
50	0x3c30f3a1	0.010800273
51	0x3d7f38b1	0.062309925
52	0x3d1703c3	0.03686882
53	0xbd513630	-0.051077068
54	0x3d925024	0.07144192
55	0xbda880e9	-0.08227713
56	0xbcb2068f	-0.021731643
57	0xb9cc05a4	-0.00038914115
58	0xbd32fbe0	-0.043697238
59	0x3d3c8293	0.046022963
60	0xbdb3e7ae	-0.08784424
61	0x3d4c9971	0.04995102
62	0xbdda553f	-0.10660791
63	0xbdcee902	-0.101030365
64	0xbdc1671c	-0.09443495
65	0xbd6d3dca	-0.057920255
66	0xbd909de6	-0.07061367
67	0xbdaf67cb	-0.08564719
68	0xbdd7bca0	-0.10534024
69	0x3cd04cbc	0.025427215
70	0xbd877a9f	-0.06615185
71	0x3dcc2d82	0.099696174
72	0xbdd32f2d	-0.103117324
73	0xbdceb434	-0.10092965
74	0x3d226421	0.03964627
75	0x3d059801	0.032615665
76	0xbd6343ae	-0.055484466
77	0x3d5c49a1	0.053781155
78	0xbc94d358	-0.018167183
79	0xbb84a509	-0.004047994
80	0xbc854d20	-0.016272128
81	0xbe03ce38	-0.12871635
82	0x3c3885a8	0.011262335
83	0xbdbbb702	-0.09165765
84	0xbd7e6175	-0.06210466
85	0xbc1c8669	-0.00955353
86	0xbde05c4c	-0.10955104
87	0xbd074645	-0.033026
88	0x3d49d13d	0.04927181
89	0x3cb05681	0.021525623
90	0x3dbea351	0.09308494
91	0x3dffe20a	0.124942854
92	0x3cb38b8e	0.02191713
93	0x3e64b92a	0.2233626
94	0x3ea15cea	0.315162
95	0x3e2c0832	0.16800001
96	0x3ea6d949	0.3258765
97	0x3e638ba5	0.22221239
98	0x3dd1d287	0.10245233
99	0x3d1b2973	0.037881326
100	0xbdca42cb	-0.09876021
101	0xbc378bf4	-0.011202801
102	0xbd0add58	-0.033902496
103	0xbc1c27d6	-0.009530982
104	0xbc413345	-0.011792009
105	0x3d543561	0.05180872
106	0x3b0e8e94	0.0021752464
107	0xbceaa629	-0.028643684
108	0x3d0109a2	0.031503327
109	0x3e00e7b2	0.12588385
110	0x3da050f6	0.07827942
111	0x3e12373d	0.14278884
112	0xb9deb1f2	-0.0004247572
113	0x3d97f456	0.0741965
114	0xbd39b04b	-0.04533414
115	0x3e24c992	0.16092518
116	0x3de23021	0.11044336
117	0x3d89f2ab	0.06735738
118	0x3db0dba6	0.086356446
119	0xbca4d0a0	-0.020119011
120	0x3e7ec926	0.2488142
121	0x3c680779	0.014161938
122	0xbe5502b3	-0.20801811
123	0x3e88e1d9	0.26734808
124	0x3de2499c	0.11049196
125	0xbe6fda70	-0.23423171
126	0xbcf420c4	-0.02980078
127	0x3dd288e5	0.10280017
128	0xbdf65c24	-0.12029293
129	0xbdaf846d	-0.0857018
130	0x3ce1d569	0.027567582
131	0x3d08c4a7	0.033390667
132	0x3dcbb15e	0.099459395
133	0x3db2c908	0.0872975
134	0xbd1bb7f6	-0.038017236
135	0x3e0656b7	0.13119017
136	0x3cba14ae	0.022714939
137	0x3d58c3f7	0.05292126
138	0x3d283ced	0.04107373
139	0x3cc2ec2a	0.023794252
140	0xbd090ba2	-0.03345836
141	0x3d3d119a	0.046159364
142	0xbdcf8e20	-0.1013453
143	0xbda021d3	-0.078189515
144	0xbd89dcbd	-0.067315556
145	0x3d2f362a	0.042776264
146	0x3e167a89	0.14695181
147	0xbde0ca3b	-0.109760724
148	0xbe1729e5	-0.14762075
149	0x3cac85cf	0.021059899
150	0x3bba0b35	0.0056776055
151	0xbe416a2d	-0.18888159
152	0x3d77372d	0.060355354
153	0x3dac10d5	0.08401648
154	0xbbe08fff	-0.006853103
155	0xbc8021e5	-0.015641162
156	0x3da6c9f1	0.08143986
157	0x3d5415d5	0.051778633
158	0x3b761275	0.0037547622
159	0xbd5275c0	-0.051381826
160	0xbbb8c8e7	-0.005639184
161	0x3dc0dd1f	0.094171755
162	0x3e307348	0.17231476
163	0xbd61eeff	-0.055159565
164	0x3c82f551	0.015986117
165	0x3e739ff1	0.23791482
166	0xbcc596d9	-0.024119781
167	0xbe620b38	-0.22074592
168	0x3e3bb3dc	0.1833033
169	0xbb9e7339	-0.004835513
170	0xbe830abd	-0.2559413
171	0xbda63168	-0.08114892
172	0xbdcf9e52	-0.10137619
173	0x3e4bcbd1	0.19901969
174	0xbdd6425d	-0.104618765
175	0xbe263e5c	-0.16234726
176	0x3e6e8850	0.23294187
177	0xbe3859e5	-0.18003042
178	0xbe1dab03	-0.15397267
179	0x3e6fabc0	0.23405361
180	0x3d7dbb70	0.061946332
181	0x3e0b8b35	0.13627322
182	0xbb0fd26b	-0.0021945487
183	0x3e2d5f1f	0.16930817
184	0xbe461a68	-0.1934601
185	0xbe1c7603	-0.15279393
186	0xbdc830fe	-0.097749695
187	0xbe55e13d	-0.20886703
188	0xbe5ea9c8	-0.21744454
189	0x3dd03fa3	0.10168388
190	0xbccf5cec	-0.025312863
191	0xbdc55a49	-0.09636361
192	0x3c5fe66d	0.013665778
193	0x3d79628a	0.06088499
194	0xbcd28d22	-0.025702063
195	0x3d842443	0.06452229
196	0xbd956950	-0.072954774
197	0xbdc40410	-0.09571087
198	0x3de02ae4	0.10945681
199	0x3e013159	0.12616481
200	0x3e73a109	0.23791899
201	0x3dda96fd	0.1067333
202	0xbc98ee0c	-0.018668197
203	0x3da8468f	0.08216583
204	0xbcb7bcb1	-0.022428842
205	0x3b28e187	0.002576919
206	0x3d265852	0.040611573
207	0x3e11e239	0.14246453
208	0x3dd17bd2	0.10228695
209	0xbc4902c2	-0.012268724
210	0xbda287bb	-0.07936045
211	0xbe051210	-0.12995172
212	0xbdd540bd	-0.104127385
213	0xbdb468ce	-0.088090524
214	0xbe976955	-0.2957255
215	0xba65fe6e	-0.000877357
216	0xbd9340cd	-0.07190094
217	0x3d054658	0.03253779
218	0x3d955add	0.072927214
219	0xbd1bb24f	-0.038011845
220	0x3b636710	0.0034698881
221	0xbd23843c	-0.03992103
222	0x3d58ba3f	0.052911993
223	0x3da1306c	0.07870564
224	0xbc24c679	-0.010057085
225	0x3d708a37	0.058725562
226	0x3cab4b46	0.020909917
227	0x3ca4d091	0.020118983
228	0xbd3b4918	-0.045724005
229	0xbd8177cb	-0.06321677
230	0xbd09bce8	-0.03362742
231	0x3d144101	0.036194805
232	0xbb408f75	-0.0029382382
233	0xbcab485f	-0.020908533
234	0x3c5b682d	0.013391537
235	0xbd0e0b96	-0.034679018
236	0x3ca3e3ea	0.020006139
237	0x3db5bab8	0.088735044
238	0x3de65a05	0.112476386
239	0x3df5d505	0.12003521
240	0xbd40f350	-0.04710704
241	0x3d870a7f	0.06593799
242	0xbd21bb38	-0.039485186
243	0x3cc382e7	0.02386613
244	0xbd4ffdfa	-0.05077932
245	0xbd79fcd7	-0.061032142
246	0xbd1b2d2e	-0.037884884
247	0xbcffc1bf	-0.031220315
248	0x3d1e6530	0.03867072
249	0x3d29c203	0.04144479
250	0x3d572922	0.05252946
251	0xbcf5d9cf	-0.030011086
252	0x3df280ff	0.1184101
253	0x3d1571a8	0.036485344
254	0xbe0a685e	-0.13516375
255	0xbd2d332e	-0.042285137

block_2.0.bias f4 [10]
0	0xbde7524f	-0.11294996
1	0xbb0dde62	-0.0021647443
2	0xbd4f46cb	-0.050604623
3	0xbd85e87c	-0.065384835
4	0x3d5e94fa	0.054341294
5	0x3dcc0de2	0.099635854
6	0xbdf1de68	-0.11809999
7	0x3d9a5aac	0.075368255
8	0xbd2eaaa5	-0.042643208
9	0xbdcda650	-0.10041487

block_2.2.weight f4 [10, 10, 3, 3]
0	0x3cddd570	0.027079314
1	0x3c8d9bdd	0.017286235
2	0x3d795942	0.06087614
3	0x3cf2eed0	0.02965489
4	0xbe033a03	-0.12815098
5	0xbd6ca079	-0.057770226
6	0x3bcd0e13	0.0062577813
7	0xbd4c6e97	-0.049910154
8	0xbdbf67f2	-0.09345998
9	0x3d6d8f4a	0.05799798
10	0xbe05a974	-0.13052922
11	0xbdaabced	-0.08336816
12	0xbd8f072f	-0.06983792
13	0x3dce4154	0.10071054
14	0x3e34ef25	0.17669351
15	0x3d8c21fe	0.06842421
16	0x3e301351	0.17194869
17	0x3e6d347a	0.2316455
18	0x3db65c6b	0.08904346
19	0xbcf68715	-0.030093709
20	0xbe59766c	-0.2123658
21	0xbd673342	-0.056445368
22	0x3ccd49d9	0.025059627
23	0xbdfa0df6	-0.12209694
24	0xbd225b85	-0.03963806
25	0x3d442d72	0.047894903
26	0x3d17c6e2	0.037054904
27	0xbd1b47d8	-0.037910312
28	0x3e18d7f8	0.14926136
29	0x3e07ff3a	0.13280955
30	0xbae21267	-0.0017247916
31	0x3da34bc1	0.07973433
32	0x3cde893b	0.027165046
33	0xbd2ef435	-0.042713363
34	0x3d802016	0.0625612
35	0xbdcb4c62	-0.09926678
36	0xbbd10a0d	-0.006379372
37	0xbd5ba494	-0.05362375
38	0x3d8eb406	0.069679305
39	0xbaf31e30	-0.0018548425
40	0x3bf9b9b9	0.007621017
41	0xbdb4476f	-0.088026874
42	0x3d5e0e10	0.05421263
43	0x3cdbe26b	0.026841363
44	0x3a7b0f8b	0.0009577206
45	0xbe55c395	-0.2087539
46	0xbe652d2d	-0.22380514
47	0xbe1d16de	-0.15340754
48	0xbc01c5be	-0.007920681
49	0xbc7f59d8	-0.015585385
50	0x3d0b22da	0.033968784
51	0x3dbc3641	0.091900356
52	0xbda1f472	-0.07907952
53	0x3de77546	0.11301665
54	0x3d91a2be	0.07111119
55	0xbd232a02	-0.039834984
56	0x3d784c96	0.060619913
57	0x3d621b72	0.055201955
58	0xbd1c65ad	-0.038182903
59	0x3999aba9	0.0002931033
60	0x3ca806d9	0.020511078
61	0x3bcf8d46	0.00633398
62	0xbc907294	-0.01763276
63	0xbc86afb7	-0.01644121
64	0xbd0c874f	-0.034308728
65	0xbe782d12	-0.24235943
66	0x3dc4b5d1	0.09604991
67	0xbe219cb1	-0.1578243
68	0xbb216129	-0.0024624562
69	0x3d22cc71	0.03974575
70	0xbe5f9d57	-0.21837364
71	0x3e642893	0.22281103
72	0xbdb64365	-0.08899573
73	0xbc81d040	-0.015846372
74	0x3db81c40	0.08989763
75	0xbd07e798	-0.03317985
76	0xbcdc7ce0	-0.026915014
77	0x3cf140a9	0.029449778
78	0xbd0c3332	-0.03422851
79	0x3d3cfc99	0.046139333
80	0xbdb86238	-0.09003109
81	0x3d1d28bd	0.03836893
82	0xbd8e573a	-0.06950231
83	0xbdaf19cd	-0.08549843
84	0xbd598f95	-0.053115446
85	0x3d219013	0.03944404
86	0x3d6492f0	0.055804193
87	0xbd9593a6	-0.07303552
88	0xbcd8c817	-0.026462598
89	0xbd0f1a58	-0.034937233
90	0xbc2df7fa	-0.010618204
91	0xbd8d0391	-0.06885446
92	0x3cb93188	0.022606626
93	0xbae638ef	-0.0017564575
94	0x3ca627e9	0.020282703
95	0x3dbafc8f	0.09130203
96	0xbd92146d	-0.07132802
97	0xbdfc0f72	-0.123076335
98	0x3d3e07fe	0.04639434
99	0x3c7c3cfc	0.015395399
100	0x3cc81c75	0.024427632
101	0x3da7c1ee	0.08191286
102	0x3d5e1583	0.054219734
103	0x3e2147b3	0.15750007
104	0x3e33f142	0.17572501
105	0x3e0e2c7b	0.13884155
106	0xbcc1b882	-0.02364755
107	0xbd2b427b	-0.041811448
108	0x3da24e26	0.07925062
109	0x3d9c0c1b	0.076194964
110	0xbd4d5db3	-0.050138187
111	0x3d8975a5	0.06711892
112	0xbd97b458	-0.07407445
113	0xbce9b550	-0.02852884
114	0x3d874085	0.06604103
115	0x3e12088c	0.14261073
116	0x3dfc2758	0.12312192
117	0x3d6f4914	0.058419302
118	0x3dda5974	0.10661593
119	0xbc7d819b	-0.015472795
120	0x3cef08ca	0.029178996
121	0xbd69aec3	-0.05705143
122	0xbdf4f760	-0.119612455
123	0x3d0718fc	0.03298281
124	0xbe1be0e7	-0.15222512
125	0xbe2b0f73	-0.16705112
126	0x3d8f1abf	0.06987523
127	0xbe0189f6	-0.12650284
128	0xbde3a500	-0.111154556
129	0xbe057776	-0.13033852
130	0x3d8c87f3	0.06861868
131	0xbcace5ed	-0.02110573
132	0xbdba9579	-0.09110541
133	0xbd3db4ce	-0.046315007
134	0x3d8b5fd9	0.06805391
135	0x3cb9e75e	0.022693332
136	0xbd65a290	-0.056063235
137	0xbd7670c2	-0.060166128
138	0xbe1a8587	-0.15089999
139	0xbd1fac60	-0.03898275
140	0x3d2114cd	0.039326478
141	0x3a5382e4	0.00080685155
142	0x3dd21b57	0.10259121
143	0x3dc92b2a	0.09822686
144	0xbd5584be	-0.052128546
145	0xbda228e6	-0.07917957
146	0x3dbc421c	0.09192297
147	0x3c9f644d	0.019457007
148	0x3da4a321	0.08038927
149	0xbca480e7	-0.020080997
150	0x3d571f64	0.05252017
151	0xbc543468	-0.012951948
152	0xbd81d5d5	-0.06339613
153	0xbdb75f3e	-0.08953713
154	0xbe3f872f	-0.18703912
155	0xbd2a4401	-0.04156876
156	0xbbf95a39	-0.0076096323
157	0x3d8ed51d	0.06974242
158	0x3d8ee99c	0.06978151
159	0xbdfc913c	-0.12332389
160	0x3d50a08a	0.050934352
161	0x3e048772	0.12942293
162	0x3cc3596b	0.023846349
163	0xbd1bc71f	-0.038031694
164	0xbd5ad33a	-0.053424098
165	0xbd4f9c61	-0.050686244
166	0x3daabc95	0.083367504
167	0xbca0a2c9	-0.019608872
168	0xbde162c8	-0.11005169
169	0xbc81c6fc	-0.015841953
170	0x3d3447aa	0.044013657
171	0xbd9c9f2c	-0.07647547
172	0x3d4e5e91	0.050383154
173	0x3cdd82e5	0.027039954
174	0xbd72d2e3	-0.05928315
175	0x3c83d462	0.016092483
176	0xbd34c1ec	-0.04413025
177	0x3e055018	0.13018835
178	0xbd154dc3	-0.036451112
179	0xbd19716d	-0.037461687
180	0x3c5ef726	0.0136087295
181	0x3d93eee4	0.07223299
182	0x3db97b6c	0.09056744
183	0xbd1eff3e	-0.038817637
184	0xbd0a25f6	-0.03372761
185	0xbd4a44f0	-0.04938215
186	0x3d36662f	0.044531044
187	0xba87e1b9	-0.0010366953
188	0xbcce616e	-0.025192942
189	0xbd337691	-0.043814246
190	0xbe4af07c	-0.198183
191	0x3e056bb5	0.13029368
192	0xbd1b361e	-0.037893407
193	0x3db976f3	0.09055891
194	0x3e44f041	0.19232275
195	0x3c82fbba	0.015989173
196	0x3e7930e2	0.24335054
197	0x3e403eab	0.18773906
198	0x3e68cdfe	0.2273483
199	0x3e03b357	0.12861381
200	0xbe057132	-0.13031462
201	0x3e64ba11	0.22336604
202	0xbc57f5b7	-0.013181142
203	0xbce1e313	-0.027574098
204	0x3e461856	0.19345221
205	0xbbf10533	-0.007355356
206	0x3e0d2c24	0.1378637
207	0x3d990978	0.07472509
208	0x3db7b635	0.089703
209	0xbd914238	-0.07092708
210	0x3de4f246	0.111790225
211	0x3dcb7a33	0.09935417
212	0x3d3f15bb	0.046651583
213	0xbd764b4d	-0.060130406
214	0xbdfae4e4	-0.12250689
215	0xbdc6998a	-0.09697254
216	0xbc7677fe	-0.015043257
217	0xbd89e6e3	-0.06733491
218	0x3d727c16	0.05920037
219	0xbd1478e3	-0.0362481
220	0xbdb83936	-0.08995287
221	0xbdf247ec	-0.11830124
222	0xbd14c3df	-0.03631961
223	0x3c010eaa	0.007877031
224	0x3d92e122	0.07171847
225	0xbd5c0628	-0.05371681
226	0xbe33fa8d	-0.17576046
227	0xbe1a776e	-0.15084621
228	0xbe2c4342	-0.16822532
229	0xbde970a3	-0.11398437
230	0x3cde6c5b	0.027151277
231	0xbe33f432	-0.17573622
232	0xbdc0d8fb	-0.09416386
233	0x3de491b4	0.11160603
234	0xbb191c3f	-0.0023362783
235	0x3d9799b8	0.074023664
236	0x3d514a1e	0.051096074
237	0x3d8273ae	0.063697204
238	0xbd28f0d7	-0.041245308
239	0xbd12a04a	-0.035797395
240	0xbc8196a7	-0.015818907
241	0xbdebffe4	-0.11523417
242	0xbd97fef7	-0.074216776
243	0x3c25b2eb	0.010113458
244	0xbd1b42ee	-0.037905626
245	0xbe31f4a3	-0.17378478
246	0xbe2aa249	-0.1666347
247	0xbe7cd133	-0.24689178
248	0xbc546943	-0.0129645495
249	0xbdd6f079	-0.10495085
250	0xbce6583e	-0.028118249
251	0x3e32902a	0.17437807
252	0xbdc6b214	-0.097019345
253	0x3df3699c	0.11885378
254	0x3c0da085	0.008644228
255	0xbdce5696	-0.10075109

block_2.2.bias f4 [10]
0	0x3d15c237	0.03656217
1	0x3d8a351a	0.067484096
2	0x3c55e7e5	0.013055776
3	0xbe165f7a	-0.14684859
4	0xbd917723	-0.07102802
5	0x3bec1a77	0.0072053033
6	0x3d7e7520	0.062123418
7	0xbd695739	-0.056967948
8	0xbd3b652c	-0.045750782
9	0xbe0eee2d	-0.13958044

classifier.1.weight f4 [10, 490]
0	0xbd61bb07	-0.055110004
1	0xbded0a0e	-0.115741834
2	0xbc5e647a	-0.01357376
3	0xbd130a0f	-0.035898264
4	0xbd9ab363	-0.075537466
5	0xbd0e1f39	-0.034697745
6	0xbdba9a3f	-0.09111451
7	0x3b979db6	0.004626955
8	0x3d1eacfb	0.038739186
9	0x3c27dcbc	0.010245498
10	0xbd972592	-0.07380213
11	0xbd516255	-0.051119167
12	0xbd5d7e86	-0.05407574
13	0xbd21c190	-0.039491236
14	0x3d7e5b32	0.06209869
15	0x3dd3bbd6	0.10338561
16	0x3cc58531	0.024111362
17	0xbd81d8ff	-0.06340217
18	0xbccc01f3	-0.024903273
19	0x3c0ef40b	0.008725177
20	0x3c848927	0.01617868
21	0x3b97214c	0.0046121236
22	0x3d7c93ac	0.06166427
23	0x3cdeb036	0.027183633
24	0xbd8cbf6e	-0.0687245
25	0xbdf09fbf	-0.11749219
26	0x3da74c5f	0.081688635
27	0xbc4d0c95	-0.012515207
28	0xbdb6b4ec	-0.08921227
29	0xbe5a4909	-0.21316923
30	0xbc02d9e4	-0.0079865195
31	0x3d3e455a	0.046452858
32	0xbdd4ce34	-0.103908926
33	0x3ad5872c	0.0016290895
34	0x3a8769f7	0.0010331263
35	0xbd3f9a00	-0.046777725
36	0xbe49435b	-0.196546
37	0xbdc9b593	-0.09849086
38	0xbc07b6cf	-0.008283331
39	0x3ba17032	0.004926705
40	0x3b233dab	0.0024908583
41	0xbb4de299	-0.003141558
42	0x3b5f437f	0.003406733
43	0x3d1613c3	0.03663994
44	0xbd84697b	-0.06465431
45	0x3c2df6f2	0.010617958
46	0x3c066e7e	0.008205054
47	0x3b3847f0	0.002811905
48	0x3c83c566	0.016085338
49	0xbd4e6098	-0.050385088
50	0xbe057054	-0.13031131
51	0xbdb940df	-0.09045576
52	0xbc22669c	-0.009912159
53	0xbd21c2dc	-0.039492473
54	0x3c3274e7	0.0108921295
55	0x3d5fa56e	0.054601125
56	0xbe044206	-0.12915811
57	0xbd41de9d	-0.04733144
58	0xbca9631d	-0.020677144
59	0x3d29fcdb	0.041500907
60	0xbdc258f4	-0.09489623
61	0xbb51c207	-0.0032006518
62	0x3ba591d1	0.005052783
63	0xbc0a3abb	-0.008436854
64	0x3cbac289	0.02279784
65	0x3bcc15e2	0.0062281946
66	0xbdd60015	-0.104492344
67	0xbbc377e3	-0.0059652193
68	0xbcc5cb7a	-0.024144877
69	0xbc18c703	-0.009324792
70	0x3d966dc5	0.073451556
71	0x3d8b84d5	0.06812445
72	0xbd3295e4	-0.043599978
73	0xbe033bfc	-0.12815851
74	0x3caa0270	0.020753115
75	0x3dc70baf	0.09719025
76	0xbd8c8f31	-0.06863249
77	0xbb6913c9	-0.0035564771
78	0x3d176195	0.036958296
79	0xbdd2a4ba	-0.10285325
80	0xbd3096b3	-0.043112468
81	0x393d678d	0.0001806302
82	0x3d02bc6d	0.031917978
83	0xbd08cc9a	-0.03339825
84	0xbd6f7065	-0.058456797
85	0xbd60c420	-0.05487454
86	0xbd251ff8	-0.04031369
87	0xbc182156	-0.009285292
88	0xbd9b12ca	-0.07571943
89	0xbd155e3b	-0.03646682
90	0x3cf1d3d9	0.029519962
91	0xbd105704	-0.035239235
92	0xbd8e92e4	-0.06961611
93	0xbd9f5000	-0.07778931
94	0xbd618a4e	-0.05506354
95	0xbc9e9b4f	-0.019361166
96	0x3d5f83e9	0.05456916
97	0xbd92295b	-0.07136794
98	0xbd5bd56d	-0.053670336
99	0xbddea7eb	-0.108718716
100	0x3c93ae48	0.01802744
101	0xbdd27a88	-0.10277277
102	0xbcbb2943	-0.022846824
103	0xbd4a4213	-0.04937942
104	0xbca9c23a	-0.020722497
105	0xbcd2c24f	-0.02572742
106	0xbb4fd818	-0.0031714495
107	0x3bf3e0e1	0.007442579
108	0xbdd8c7bd	-0.10584972
109	0xbd3e11a5	-0.046403546
110	0x3d2c8e1c	0.042127714
111	0xbd221490	-0.03957039
112	0x3d32e99d	0.043679822
113	0xbb48a366	-0.0030614971
114	0x3d444c77	0.047924485
115	0xbdff231c	-0.124578685
116	0x3c7288f9	0.014803165
117	0x3d32e242	0.043672808
118	0xbddb8ff2	-0.10720815
119	0x3e1bfd0d	0.1523325
120	0x3c82e652	0.015978966
121	0xbe205b74	-0.15659887
122	0xbdb0b2d6	-0.0862786
123	0x3d8ae9d1	0.06782878
124	0x3d296b9f	0.0413624
125	0xbdd6efd6	-0.10494964
126	0x3d87acc8	0.06624752
127	0xbbdfbd5a	-0.0068279924
128	0xbe109e08	-0.14122784
129	0xbcda1b21	-0.026624264
130	0x3d66300f	0.056198176
131	0x3d9424df	0.07233595
132	0x3bdb2e68	0.0066888817
133	0xbd676022	-0.056488164
134	0xbe042fde	-0.12908885
135	0xbe18d4d6	-0.1492494
136	0x3c4babe7	0.012431121
137	0x38595544	5.181624e-05
138	0xbce3fb60	-0.027829826
139	0xbd814262	-0.0631149
140	0xbca28df9	-0.019843088
141	0xbd50c04e	-0.050964646
142	0xbd76d3c8	-0.060260564
143	0xbd0bfd82	-0.03417731
144	0x3d550fcc	0.05201702
145	0x3d35fd9d	0.044431318
146	0xbd97d9c4	-0.07414582
147	0xbdd81323	-0.10550525
148	0xbd0f320a	-0.03495983
149	0xbdd1e3eb	-0.1024855
150	0xbdbc84ba	-0.09205003
151	0xbd9f4ba5	-0.077781
152	0xbe20933b	-0.15681164
153	0x3aafb7a7	0.0013406173
154	0xbd6563b7	-0.0560033
155	0xbca82b80	-0.020528555
156	0xbc4cc9d1	-0.012499289
157	0x3cced8c9	0.025249856
158	0xbba7dfbb	-0.0051231063
159	0xbd69d1d9	-0.057084892
160	0x3d2a5189	0.041581664
161	0xbd512d5a	-0.05106864
162	0x3c81353b	0.015772453
163	0xbd982896	-0.07429616
164	0xbdec6d30	-0.11544263
165	0x3bada25f	0.005298897
166	0x3dcb25d7	0.09919327
167	0xbcc334e4	-0.023828931
168	0xbdee5c84	-0.1163874
169	0x3d0392ef	0.03212255
170	0xbd095c9d	-0.03353559
171	0xbe8bf16e	-0.27332634
172	0x3d38c233	0.045107078
173	0x3dcab5e1	0.09897972
174	0xbd853e05	-0.0650597
175	0xbdff24ba	-0.12458177
176	0x3d2818d0	0.041039288
177	0x3d6ea57a	0.05826328
178	0xbddad4d8	-0.10685128
179	0x3ad89f61	0.0016526991
180	0x3d35c14b	0.04437379
181	0xbca3b539	-0.019983875
182	0xbd0d27c6	-0.03446176
183	0xbc4a176e	-0.012334688
184	0x3d785f4b	0.060637753
185	0xbd06cf72	-0.03291268
186	0xbc280c40	-0.010256827
187	0xbdb94a47	-0.090473704
188	0x3cb87704	0.022517689
189	0xbd1abbdc	-0.037776813
190	0xbd949519	-0.072550006
191	0xbcbb09f6	-0.022831898
192	0xbd1a0994	-0.03760679
193	0xbd5666b9	-0.052344058
194	0xbe09b21d	-0.13446851
195	0xbce0608e	-0.02738979
196	0xbcba6a20	-0.022755682
197	0x3a897b1e	0.0010488962
198	0x3cb04fec	0.021522485
199	0x3cc9bcb5	0.024626115
200	0x3c2ac9ad	0.01042406
201	0xbc529e9f	-0.012855201
202	0xbc6f772d	-0.014615816
203	0xbd3267ca	-0.043556012
204	0xbd7a91c1	-0.061174158
205	0xbd85a1e5	-0.065250196
206	0xbd615728	-0.05501476
207	0xbb9d58e4	-0.0048018564
208	0xbcfa3ca2	-0.03054649
209	0x3c295283	0.010334614
210	0xba4f6b40	-0.0007912405
211	0xbc84f36b	-0.016229352
212	0x3c808397	0.015687747
213	0xbc8beba3	-0.017080134
214	0xbcec4166	-0.028839778
215	0xbca8f9c2	-0.020626906
216	0xbd390ada	-0.045176364
217	0x3caab0b8	0.02083622
218	0x3a967274	0.0011478201
219	0x3bafd83e	0.0053663542
220	0xbce2ee66	-0.027701568
221	0xbd091523	-0.033467423
222	0xbd6f4ea2	-0.0584246
223	0xbc29bba8	-0.010359682
224	0x3caf6f14	0.02141527
225	0xbd196d95	-0.03745802
226	0xbc84c56f	-0.016207425
227	0xbb3e7e17	-0.0029066855
228	0x3bfd704e	0.007734335
229	0xbd33b83e	-0.04387688
230	0xbd0e05b7	-0.03467342
231	0x3aa3ac20	0.001248721
232	0xbd029636	-0.031881534
233	0xbbaaccc7	-0.0052123996
234	0xbcffeba1	-0.031240286
235	0x3c901c91	0.017591747
236	0xbd48a834	-0.048988536
237	0xba2281e6	-0.0006199166
238	0xbd553588	-0.052053005
239	0xbd3e21bf	-0.0464189
240	0xbc65ea23	-0.014032873
241	0x3c99aa00	0.01875782
242	0x3c2519fe	0.010076998
243	0x3c9cbc80	0.019132853
244	0xbc6598ed	-0.014013511
245	0xbd825748	-0.06364304
246	0x3c239caa	0.009986082
247	0xbccc6d03	-0.024954325
248	0xbd8f5dc6	-0.07000308
249	0xbd58a74c	-0.05289392
250	0xbd555133	-0.05207939
251	0xbc617307	-0.013760335
252	0xbd427c73	-0.047481965
253	0x3c332d77	0.010936133
254	0x3bdcf13a	0.0067426236
255	0x3a4a248c	0.00077111344

classifier.1.bias f4 [10]
0	0xbd2d6ddf	-0.04234111
1	0x3cdf68a5	0.027271578
2	0x3d3b444b	0.045719426
3	0xb78b92c7	-1.663844e-05
4	0x3cb7f3ac	0.022455059
5	0x3cf2431b	0.029573014
6	0xbd207c86	-0.039181255
7	0x3d30b4f3	0.043141317
8	0x3cf9caa1	0.030492129
9	0xbca59028	-0.02021034
